examples/models/sentiment_rottentomatoes/model.npz (npz, 13070 bytes, 2 tensors)

weights f8 [1, 1536]
0.8763746066101303 0.34724938271033046 -0.1652178487154781 -1.4730600392456306 0.3871901748579443 0.8126464316536889 0.26136946512520765 -0.07951979112540669
-0.17080553248227473 -1.0017831363419134 -1.3392544110187348 0.17080404736034616 -1.4740167834979758 -1.1403397745631882 0.44069628994549953 0.2860114259794094
0.4109162256629052 -0.43129121214655936 -0.06871873948700859 -0.5232052111075254 -0.3179076679502459 0.06315312680644887 1.4636336596801895 -0.46699684657009316
-0.7133512450452815 0.7193195553049191 0.33795934294754504 -0.7356831405618612 0.20499812090746994 -1.1717604727658435 0.1295124788977929 0.47224871392100887
-0.1147919709650798 0.5437970735151564 -0.2321909603270523 0.7695827015416389 -1.9469915606917803 -0.3684891568678026 -0.15271652095189608 0.4219218483649066
0.9722050663945796 0.6815727785955729 0.5653389122561067 1.8800697850354346 0.8168351223663659 -0.6555488633517865 -0.147265695004874 -0.4603185453592203
0.5879927929166621 -1.1500499752865183 0.4452254078484798 1.8948691744002886 0.14646037725830222 -0.19286864687058503 -1.1847844550733035 -1.2996832540241314
-0.2967626468945186 1.3854554556480698 0.8563679512354179 -0.9100691082836722 0.5700830483445325 -0.27476864477824187 -0.9775585041043632 0.7808851312320159
0.5411193089115282 -0.3212851244316052 -0.090847821161144 1.7346852485580566 1.5065715341224097 0.18809885616403105 0.9172847929538973 -1.1075146510465688
-0.004035217389870529 1.1414789881978733 -0.26139351686913065 -0.0849851653042457 -1.7850456329267548 -0.0034448051765883438 0.3922988559587024 0.9447647936821821
-1.5101300307242203 0.9784062058520019 1.072277505057847 -0.8793785774622044 -0.5991732177655232 0.035694575874351805 -1.1561953420426196 0.30331541733828316
-0.755107280319909 -0.7885202378815919 0.27666717593698287 -0.3630235850852454 -0.13403634886364377 -0.626398459737418 -0.986193729903103 -1.013864247937524
-0.7735165489420092 -0.9778577469361114 0.9751938899730652 -0.01790636550351268 0.3788458140548857 0.8777912103749634 2.1594760420981345 -0.7034176841245084
0.48820474924327517 -0.5692334219056071 -0.037278125706263245 -0.7941488442513942 -0.14607989899821108 0.7094091614669293 -1.0668144065414036 -0.917607703749344
-0.1579472663984562 -0.19494848861760009 0.7087066214625315 0.7992680347852531 -0.7167977752103886 -0.7194623119464423 0.5392671321314644 0.8542402251075611
0.2739331260020874 0.901132684152558 -0.1948475296921456 0.08226951520912242 -1.241583842280321 1.1253721234656398 0.049010894279384966 -1.3492454097690785
0.6809071931042001 -1.266188788664552 -0.11687960261883248 -0.350723734245205 -0.33460198099889216 0.07127534386301451 0.4586457462414546 0.41239620410358696
0.7248474458233052 0.1588178738960354 -0.7025670459315841 1.2243597692763069 0.26888834322892685 0.5173290733528841 -0.049125734484213736 -0.14559557362696204
0.20866593908932457 0.6494650610231466 0.23349995573203944 -0.7486618791059122 0.7048883034724384 1.1665802458635837 0.9619104619917931 -1.5526832616282629
-0.5792506059009224 1.505636394311492 0.5692796085544518 -0.7220745128267477 1.5456980037357573 0.617395451331692 -0.2812880818761884 -0.6813851139219037
-0.13706786622126688 -0.29497474891069736 0.5329482117918385 -0.3294236387718787 0.2555259158567495 0.047205564396514715 -0.087604136940675 -0.9262849665442401
-0.2547283730106231 1.0856241453210433 1.4651037374989107 0.12596015536480762 -0.4995601260287706 0.04655213964257525 -0.07062668659379877 0.4876707278067457
0.7595646805575866 0.8622742946043012 0.21071809437651062 0.2051318648915875 1.9454015184099613 1.6785898585336867 0.6274097834896464 0.15538079181638492
-0.3206704111182615 0.6715321678074206 1.0458396776069894 0.4978185999203734 0.05596647521197158 0.32183912470245074 -0.3440827790370444 0.6561652260334149
0.2678004092645044 -0.6774652522647491 -0.7371797870825664 0.11830789314814083 0.46107310366284426 0.020277560872627495 0.05968961964405938 -0.6682002135197611
1.0633848651141473 -0.9793309416307728 1.8647695024525777 -0.8256037083458206 0.5265820066697757 0.343749551191719 0.35387976044267233 0.13552206300724481
-0.34326541248735964 -0.7838466762494543 -0.5772852261129674 -0.13910315519913782 -0.2611491877353692 -0.7024872314893021 0.23272700679864194 0.2246080955701725
-1.3985134272218913 -0.08132691771813565 -0.1923589080575836 0.5725772657408587 0.8911172377555366 -0.015928662230527434 -1.5935460886349841 -0.3904830206140488
-0.6530585581513877 -0.2566632405991734 -0.3569054235369852 0.9690435687566942 -0.7268501312260222 0.5954312026896771 -0.6906235790350862 0.32703352573892863
-0.9016868063085204 1.2216474854179733 0.6195097308366593 -0.5854103783180876 0.6148072494261508 -0.02678301131740998 0.8917228028458707 0.23948478245184449
0.6963116091374314 -0.5346956455390717 -0.6119264628297623 0.22520095150605332 0.08986783349568148 -0.07155055408043695 -0.034617905704286904 -0.6827465211858812
1.1171881621714674 -0.07043562693686517 0.6693328602272949 -0.3940949953518274 0.28268373344404546 0.1661269462489143 -0.7231679776971548 -0.327471251129937
00000000: 98ee 4dc2 420b ec3f fc02 9379 5539 d63f
00000010: f166 79c4 db25 c5bf deab 5967 a791 f7bf
00000020: ad3b 964c b9c7 d83f f93c e516 3301 ea3f
00000030: 9cb0 38fe 46ba d03f 14b4 44b6 685b b4bf
00000040: bd5d fea7 f4dc c5bf 805d 04c1 4d07 f0bf
00000050: 5b96 8508 966d f5bf 9cf3 b732 e8dc c53f
00000060: 0d10 6e9f 9295 f7bf 023b 61eb d43e f2bf
00000070: 7f34 3236 5e34 dc3f f149 37de 024e d23f
00000080: 3a8c a791 734c da3f d92f ce74 469a dbbf
00000090: 6113 b822 8d97 b1bf 12b7 d9da 18be e0bf
000000a0: 9b9c 3f67 9958 d4bf 4d1a 46a6 cd2a b03f
000000b0: 596b da20 0b6b f73f b1a2 d6bd 46e3 ddbf
000000c0: c2f8 80fd c5d3 e6bf 710d ad71 aa04 e73f
000000d0: 3697 5539 20a1 d53f 05d1 9d5e b78a e7bf
000000e0: 2cff 84e0 603d ca3f 9165 d4e8 87bf f2bf
000000f0: cb1b a56a dd93 c03f 4e9a 77ab 5239 de3f
00000100: 236e 23b1 0163 bdbf 310f cd1e c966 e13f
00000110: f308 84f2 6eb8 cdbf 9109 d6e6 6ba0 e83f
00000120: aa25 6c9f e026 ffbf 8061 6b8b 5395 d7bf
00000130: ae0d 8607 378c c3bf 417d 0c7f c400 db3f
00000140: 8272 a5cc 4d1c ef3f bf2d 3db7 71cf e53f
00000150: 677a 69a1 4117 e23f 90cc 0e0e c414 fe3f
00000160: d634 1969 8323 ea3f 24d4 209c 41fa e4bf
00000170: bd2f ef2f 9ad9 c2bf 65d9 83ea db75 ddbf
00000180: 618b fb42 d6d0 e23f 74f0 89cd 9a66 f2bf
00000190: cbad 83b5 927e dc3f d3f6 e356 6251 fe3f
000001a0: 41fb 3db1 36bf c23f d4d0 5d79 ebaf c8bf
000001b0: 9695 758b e0f4 f2bf 8014 f3aa 80cb f4bf
000001c0: d086 c5c1 28fe d2bf fc2b 0157 d32a f63f
000001d0: aec1 fcc2 5d67 eb3f 43b4 2540 491f edbf
000001e0: a299 14ce 1e3e e23f 897b d239 cf95 d1bf
000001f0: ebc1 a1c5 2848 efbf a75f 92d0 02fd e83f
00000200: d54a e070 d950 e13f 9200 887b ef8f d4bf
00000210: d9ca cc84 cd41 b7bf 5891 b651 45c1 fb3f
00000220: a93e c2c0 ea1a f83f d6db d191 9f13 c83f
00000230: 255d 5ba3 655a ed3f b45f 6148 61b8 f1bf
00000240: dc43 8c6b 3b87 70bf b918 b678 7f43 f23f
00000250: c1b7 95df abba d0bf cf7b a079 96c1 b5bf
00000260: c89b 7402 8c8f fcbf 719e 62b2 4738 6cbf
00000270: 3074 26a9 6c1b d93f 7ede 6860 833b ee3f
00000280: 22b0 6a1b 7e29 f8bf 31cf 0a88 1a4f ef3f
00000290: dd5b 0775 0c28 f13f f919 e08a de23 ecbf
000002a0: ef24 de4f 6d2c e3bf d6c3 0c38 8f46 a23f
000002b0: f5c4 ddaf c67f f2bf 0acb 7511 8569 d33f
000002c0: a641 3ebe d629 e8bf 40f0 3dcb 8e3b e9bf
000002d0: 4eaa 213e eab4 d13f 138a 6746 c73b d7bf
000002e0: bf1b 6c63 1a28 c1bf 91c8 5ac8 740b e4bf
000002f0: dc87 2e27 e68e efbf d59a b7b7 c938 f0bf
00000300: e1dc 13c7 a5c0 e8bf 1063 6754 9c4a efbf
00000310: d22f 16d1 c934 ef3f e746 e9d8 0b56 92bf
00000320: 1ee7 6583 023f d83f ecda a897 dd16 ec3f
00000330: c074 0a60 9b46 0140 33c5 97cd 6582 e6bf
00000340: a21c f021 bf3e df3f f9fd 5b02 2937 e2bf
00000350: b576 8755 1e16 a3bf f2e8 46d6 aa69 e9bf
00000360: 3970 6602 bfb2 c2bf be76 7fd7 7ab3 e63f
00000370: 9ef3 affb ab11 f1bf a427 c5d4 0a5d edbf
00000380: 9e44 d6b3 9d37 c4bf 4934 8273 12f4 c8bf
00000390: b87c 3482 b9ad e63f dd81 c48e 9a93 e93f
000003a0: 45f9 4be3 01f0 e6bf f276 90d3 d505 e7bf
000003b0: c6fe 0925 ad41 e13f 0a78 b898 ef55 eb3f
000003c0: b014 5ece 1e88 d13f 8657 f935 14d6 ec3f
000003d0: c5f8 dd8b c3f0 c8bf b1ec 476d 9d0f b53f
000003e0: 4260 dd04 87dd f3bf 07d7 2133 8601 f23f
000003f0: 9dc4 27b8 f417 a93f eec7 d35a 8296 f5bf
00000400: 5ccc bfe1 fdc9 e53f 8804 de2c 4f42 f4bf
00000410: 9a3e d156 d2eb bdbf d8e7 20f6 4172 d6bf
00000420: a24a 646d 1e6a d5bf 021e e7d6 193f b23f
00000430: b89e 23b0 735a dd3f 05a5 670c b364 da3f
00000440: aace 4c45 f331 e73f 3cad 33e3 2454 c43f
00000450: 61c0 b0e2 6d7b e6bf 0a47 f944 fa96 f33f
00000460: 4468 1c74 7735 d13f 8a42 6ab3 f58d e03f
00000470: dddb 001e 0227 a9bf dfc7 9531 e0a2 c2bf
00000480: 66c1 16c4 90b5 ca3f 5fa6 9ff3 6ac8 e43f
00000490: 8147 be98 53e3 cd3f 93b2 d0c1 09f5 e7bf
000004a0: cde7 57ea 718e e63f b94c 420c 50aa f23f
000004b0: 8aeb fd72 f8c7 ee3f 0bd7 5b67 cad7 f8bf
000004c0: 700b 1191 3889 e2bf 75c3 1330 1617 f83f
000004d0: 76ac a0de 8937 e23f 63b6 3b02 3c1b e7bf
000004e0: dc99 78d4 2dbb f83f 9f66 051b b4c1 e33f
000004f0: 4f6b 1aba 9f00 d2bf 71d3 8827 e8cd e5bf
00000500: 345d 6099 708b c1bf 89e7 edc4 dde0 d2bf
00000510: b071 8368 e90d e13f 877d c3e2 4615 d5bf
00000520: e7a6 f85e 895a d03f b464 8be6 532b a83f
00000530: 9d8d 2787 396d b6bf d8af c25e 20a4 edbf
00000540: 1c69 dc3b 784d d0bf e86d 7e6c b75e f13f
00000550: 0fe2 dc9d 1071 f73f eb09 f25d 761f c03f
00000560: 2578 eb08 cbf8 dfbf 26ba a59a aed5 a73f
00000570: 4f2c 252d 9714 b2bf 1a60 c948 ff35 df3f
00000580: f220 c696 5a4e e83f e038 f042 c097 eb3f
00000590: 12e3 027e cff8 ca3f 83d6 89cd c241 ca3f
000005a0: 6b8d b257 5d20 ff3f 8dca 1c0a 81db fa3f
000005b0: 3ee9 a8ae bd13 e43f 1e94 a38d 84e3 c33f
000005c0: 490f 2330 dd85 d4bf 423c 5e07 317d e53f
000005d0: 35e6 c262 c2bb f03f 9fe7 7f8b 42dc df3f
000005e0: 6a66 6a49 a3a7 ac3f 0fe6 ca20 0399 d43f
000005f0: 772d c5c6 7305 d6bf 39c0 5237 4eff e43f
00000600: a15f e953 a423 d13f 5ee9 d49b cbad e5bf
00000610: f756 9910 fa96 e7bf b80f ee13 6d49 be3f
00000620: 3e04 53c3 3882 dd3f ef8e 2913 a4c3 943f
00000630: 0f57 9048 a38f ae3f 44ec 076a e561 e5bf
00000640: 4ba0 2bd9 9f03 f13f 537b c8d7 ad56 efbf
00000650: ceca b98b 18d6 fd3f e3a6 d977 586b eabf
00000660: 34e1 2982 c2d9 e03f e484 181e feff d53f
00000670: 6e53 744b f7a5 d63f 2554 4076 c958 c13f
00000680: 52cb 1e7e 0ff8 d5bf 083b f29f 4515 e9bf
00000690: 29d0 d3dd 1e79 e2bf 0be4 2cd7 21ce c1bf
000006a0: f2d2 2c15 abb6 d0bf 1155 a380 c67a e6bf
000006b0: 364e 8ca1 ffc9 cd3f 8d03 7244 f5bf cc3f
000006c0: 59f5 8e9d 4f60 f6bf ab45 e243 d7d1 b4bf
000006d0: c8cd 9979 379f c8bf 6948 d98e 8d52 e23f
000006e0: f9fa 214c 0884 ec3f 7686 656d 9a4f 90bf
000006f0: 12b2 f52e 2a7f f9bf 808f cb7e acfd d8bf
00000700: 8e42 b40f dbe5 e4bf 755d 1da8 2b6d d0bf
00000710: eece 76d8 89d7 d6bf 2fb1 86a8 6702 ef3f
00000720: bbb0 d634 5b42 e7bf 583e d2bc c50d e33f
00000730: 59ab b99e 9619 e6bf 2aa2 6f06 1eee d43f
00000740: 928d 0a4a 9eda ecbf f8c5 d13b de8b f33f
00000750: 2ee9 2f12 06d3 e33f 81af b38b aebb e2bf
00000760: 0921 b440 80ac e33f d764 c976 016d 9bbf
00000770: 4b41 6a42 fe88 ec3f b99a 42f6 6fa7 ce3f
00000780: bd40 a248 2f48 e63f ecec dc0a 3a1c e1bf
00000790: 2e25 2dce e694 e3bf f78f df80 62d3 cc3f
000007a0: 0e8a d30d 9401 b73f 8641 c919 2351 b2bf
000007b0: af3b b629 70b9 a1bf aa6f 7e3b 0fd9 e5bf
000007c0: a613 c0b1 00e0 f13f 94c6 2aba 1108 b2bf
000007d0: 530f 1abf 2c6b e53f 6d6a 2337 da38 d9bf
000007e0: ff36 9083 7d17 d23f c7cc 8fd4 a543 c53f
000007f0: db28 b72b 3124 e7bf 1aee 7efa 49f5 d4bf

biases f8 [1]
-0.02898985823438907
00000000: 8827 2174 84af 9dbf
