models/spam/model.npz (npz, 13070 bytes, 2 tensors)

weights f8 [1, 1536]
0.25225133446860176 -0.004036168251999289 1.1846160598733915 0.6706846359133412 0.28542987345802523 -0.6945598854448218 -0.5298661128870858 -1.1923413302687826
0.5701389925152904 0.7879224993538855 0.47930333863411545 -0.0520660525479684 0.28932564109010017 -1.0406882318996509 -0.3056383874431735 -1.4565354785536584
1.6366796372020973 -0.2872874526740618 1.4022485676270886 -0.6685965008022361 0.18971136120709656 0.4561379767000423 1.8199067971585823 0.5546134892843227
-1.192524142561739 0.18212675222504693 -1.1505966407235182 1.0216552206012315 -0.08665516736851944 0.5507094988431172 0.06098939676944554 0.06788967172486392
0.6521652015495965 -0.5979474566807679 1.8983847653880364 0.16786544049383872 0.5717636102657753 0.9658758664485069 -0.9293685501861397 1.0351624261985857
0.6498807888670539 -0.4272945743775277 0.26083306095876946 0.5004495571327716 -0.8152305522018376 -0.5182243169138953 -2.0575904223514625 0.3009715748357954
-0.4024791037013182 -1.8049946187896742 -1.2480075239080866 -1.6516100350468934 -0.0372750136473226 0.46269942163138705 -0.23732744005430242 -1.0758750656160507
0.36830010184596323 0.5683054872973373 1.3209720874382351 -0.8986738704630937 -0.43781944230019004 -0.593991003722233 -0.40435791620317696 -0.16522424843059205
0.8631081114920763 0.4736839515317616 -0.5420856037437402 -1.9806543127255087 -0.7976635375518719 -0.5331341127937318 0.7129993257973161 0.42127056959839954
-0.7736819264827901 -0.6716840908717624 1.19265470358487 -0.21085123497546943 0.8653415175924816 0.16055728663631708 -1.3549388788803844 0.9038103769121131
-0.910612693767374 -0.5073309334669717 0.48431120969639857 -0.08826188604107991 -0.2492726877935639 0.7537316475688914 -0.17418029561840354 -0.6859036226702266
-1.783109944382652 -1.9197898056998188 -0.6134202884312178 -0.024468995637529533 -0.9642967473997417 0.09580150045468248 -0.20470727775432648 0.017276848125129505
0.7135970921829915 -0.731392603611755 -0.4777711626246881 -0.17077229115811973 1.6881339435739189 -0.6495518884087165 0.29015352878122846 -0.453209179414412
0.0994031610317705 -1.1932766892547348 -1.9207718033915617 0.8192754869237034 2.3906877193692635 -0.4168356830061189 0.700863702040597 -0.17594267256408633
-0.0035443252949024216 -1.620635768929407 1.3727110511873994 0.553463572635514 -0.6980620402903045 2.0396573237822935 0.3861121878688418 1.2302199088604402
-1.1429363199224316 -0.05176471653999555 0.773717417301059 0.07820600302869324 -0.24905334407695653 -0.6965469287182521 1.4846013047724849 -0.3935138325205419
-0.6024660989358497 0.06928311680193076 0.7467579200591249 -1.1547131237977122 -0.750501235774941 -0.05136651715545361 0.9533729770217695 -0.2663658105730095
0.32963637438747584 0.9621168831165304 -0.3659741510752466 0.37172107426610357 1.457605191992996 0.6114549622604026 0.28883332115519905 -1.6269771667185968
-0.6991574476419663 -0.4366582761275654 0.16338013125092413 -0.2102719591089764 0.35179757957263985 -0.472686338104823 -0.31590785316801456 -1.6051060231072822
1.7860978204162306 -0.2061009057750165 -1.9226502661551574 0.3374196243503913 -1.3211155811996331 -1.3671557530582783 1.424216810907712 -0.06161284443831309
-0.49614383788495253 -1.4909337353773304 -1.0552832831097625 -0.46078964423633256 -1.1290775665205819 -0.09727386592722433 0.7376063631607103 -0.4753257146536932
-0.8245361933343203 0.3822782250712539 -0.8182205276723221 2.2741056519356304 -0.24201979999268008 -0.08809712859181333 -0.5982104830885348 -1.0433838791455994
2.284392277254575 -0.39044756445343987 -1.02432582062989 1.6496390184944878 -0.6834241151494407 -0.5611621988814033 1.0216454455379214 -0.9295699574070605
-0.05278603069251588 1.8659499214724218 -0.022158280897944176 -1.886724918664538 0.729920100938786 -0.6804436433323724 -1.570746434868445 0.8073281199263785
0.8639899786582629 -0.790937180196972 -3.594099741817421 1.0674487607993433 0.18775589534984138 -1.364958779267578 0.4195596364612295 0.9272683946705803
-0.15689572993722736 0.2770818161034084 2.7570508751844973 0.9368023289894662 0.6360157392948741 0.9151395194066704 -0.40130099934021024 0.5958385000770856
1.1086233683411617 -0.3177436005426428 -0.5098886937109051 -1.9318784761618608 -0.530344879231597 -2.620756384032492 0.3482010581888771 0.26247667795819285
0.19389160438282868 1.449578521184789 1.5065383825188057 0.001546648746387796 0.30187101972698915 0.08602422175415632 -1.0359808649861837 -0.14240232023368476
0.4141619520750399 -0.5393665270597711 -1.1873814822447746 1.417830255320375 0.1283828041850287 -2.080873050260272 2.1870237923515856 0.46449907859562883
1.5503749108111708 -0.29489705706032326 -0.4549519078679623 -0.3526628801338248 -0.4365757951538421 -0.8281931199138809 -0.6921226574455216 -2.4191920953323978
0.14198252453771798 0.48248347698239374 1.5696627548492437 1.7430500065315695 -0.0857246721687792 -0.6486863243710821 -0.6462864817490773 -0.8545567120178048
0.01544578451786004 0.1529083814455162 1.6077259590599322 -0.05512465419777725 0.14953545084895953 0.8850093737815313 2.485485494155341 0.21364485477726503
00000000: 658f fac7 e224 d03f a0bc 4baa 3a88 70bf
00000010: bf8f 37f8 2ff4 f23f d0ad 25a0 3f76 e53f
00000020: c96e f3a8 7b44 d23f 242b 23a7 d539 e6bf
00000030: 4a7a 43c7 a9f4 e0bf e3c6 b280 d413 f3bf
00000040: c8e1 e020 943e e23f 993d d03e a936 e93f
00000050: 5404 13e9 e7ac de3f 65c6 d9d1 66a8 aabf
00000060: e413 98b1 4f84 d23f 0075 15b4 a8a6 f0bf
00000070: 6e1e 9e4f 948f d3bf 73a0 5d25 f84d f7bf
00000080: 94fe bcfc d62f fa3f cf51 72e9 ea62 d2bf
00000090: 9823 ad31 9c6f f63f f04c 257d 2465 e5bf
000000a0: 2d35 083e 7648 c83f 8afa 1857 5d31 dd3f
000000b0: 0807 f996 561e fd3f 0db1 ccc9 64bf e13f
000000c0: c8e3 ff31 9414 f3bf 4042 44ee ed4f c73f
000000d0: 35b8 ec05 d868 f2bf bc51 0425 b358 f03f
000000e0: 0290 e075 082f b6bf 6e16 e486 699f e13f
000000f0: 4919 0e91 003a af3f 2762 cbaf 3761 b13f
00000100: 1ed5 878e 89de e43f e472 65b4 6222 e3bf
00000110: 5b0f 29b4 c85f fe3f a25b 8660 9d7c c53f
00000120: f64c e432 e34b e23f 458b 4c81 74e8 ee3f
00000130: 7a5f 1f1d 63bd edbf 9122 e979 0690 f03f
00000140: 1872 cfcb d2cb e43f 126c ad57 cb58 dbbf
00000150: b024 a226 7db1 d03f a0da 25ca ae03 e03f
00000160: 6f05 0d62 5e16 eabf 4963 a429 4b95 e0bf
00000170: b67f a4f7 f175 00c0 be80 bc47 1e43 d33f
00000180: 8f1d eeb6 37c2 d9bf af85 9209 42e1 fcbf
00000190: 028e c5bc d6f7 f3bf 6159 e4a4 fe6c fabf
000001a0: 077b 25e9 b515 a3bf 2b3c f208 de9c dd3f
000001b0: 3102 bddc be60 cebf d671 d6c5 c836 f1bf
000001c0: 2fae 2297 3a92 d73f 818a 42fd 8e2f e23f
000001d0: fe9d a7a0 b322 f53f 4c14 6db4 efc1 ecbf
000001e0: 99dd 8ed6 3b05 dcbf d75d e36b f901 e3bf
000001f0: a82a 7e06 00e1 d9bf 45fe c173 1126 c5bf
00000200: 4faa f8e6 949e eb3f 8703 1e7e d650 de3f
00000210: e5c6 76e8 c358 e1bf 0f66 9d93 c2b0 ffbf
00000220: 14e7 dfae 7586 e9bf fd97 5a45 6f0f e1bf
00000230: 1fd3 4bf6 e3d0 e63f 9350 ccd5 18f6 da3f
00000240: dafe 7799 00c2 e8bf ef34 71a2 6f7e e5bf
00000250: da14 3519 1d15 f33f a83a 455b 2cfd cabf
00000260: 6fc8 bdb1 e0b0 eb3f bc65 9e23 248d c43f
00000270: 29ec cd63 d4ad f5bf 48ef 53bd 03ec ec3f
00000280: eab4 613b bd23 edbf 67ac ef14 0e3c e0bf
00000290: dbdc ae71 f4fe de3f 8b9b 07ba 5498 b6bf
000002a0: 0300 eedc 2ae8 cfbf 4398 08d5 911e e83f
000002b0: a8f2 a438 8a4b c6bf 1473 7227 ecf2 e5bf
000002c0: e1bb 044b 9e87 fcbf 75cc ea83 75b7 febf
000002d0: 9d7a b095 23a1 e3bf 13db 1d80 660e 99bf
000002e0: f412 37da 84db eebf a74f 5c77 7286 b83f
000002f0: 6ba0 9a1b d933 cabf 7999 b3a6 05b1 913f
00000300: ec4a ae91 c9d5 e63f 998f 2176 9167 e7bf
00000310: c879 9c7f cd93 debf 8f26 cbce dddb c5bf
00000320: 0bae eebc 9802 fb3f c3a7 b80a 21c9 e4bf
00000330: bccc 3b1b e091 d23f c93d f512 6101 ddbf
00000340: 311f c04d 7c72 b93f 13da 364c a917 f3bf
00000350: c954 ea36 7bbb febf 990e d839 8137 ea3f
00000360: 561e 0de2 2020 0340 6d4b 9492 6fad dabf
00000370: a6f8 e6b6 796d e63f 6319 511c 4a85 c6bf
00000380: bdb4 4b27 fd08 6dbf 4f79 a4c5 1fee f9bf
00000390: 9652 fbdc 9ff6 f53f 39e6 ff3c f9b5 e13f
000003a0: 4f07 3434 8656 e6bf e088 e5db 3751 0040
000003b0: acf4 dee4 0fb6 d83f 5c19 3712 fbae f33f
000003c0: 95a3 3798 7749 f2bf ea81 40a9 e780 aabf
000003d0: 90ea 7407 4bc2 e83f ecee 5b01 4f05 b43f
000003e0: 2b8e e2df fae0 cfbf 1f2c dfc8 1c4a e6bf
000003f0: 4b8c 394c edc0 f73f 21c2 4ca4 542f d9bf
00000400: 021a fcfb 6647 e3bf 1f49 d4d0 89bc b13f
00000410: 83da 95dd 70e5 e73f 1e92 ef77 b479 f2bf
00000420: c259 e82a 1b04 e8bf a28d 954e b64c aabf
00000430: 6b5b a60b 0882 ee3f 37c0 4b2f 230c d1bf
00000440: f63c e429 c318 d53f 4b47 7d58 a9c9 ee3f
00000450: c92b 83d8 1e6c d7bf e23d 4d30 47ca d73f
00000460: 7d6f 61d2 5952 f73f bc54 3cff 0991 e33f
00000470: 45d3 16c1 3e7c d23f 6252 a635 1908 fabf
00000480: 0511 8c70 7f5f e6bf 6bb8 df8d 35f2 dbbf
00000490: e5fa 44e0 a3e9 c43f 92c7 d109 31ea cabf
000004a0: 7de4 c4fe d983 d63f 1547 db32 7e40 debf
000004b0: 0fff 7992 d537 d4bf ffbb 3da7 83ae f9bf
000004c0: 3f50 e24e db93 fc3f f065 fdb4 8361 cabf
000004d0: 7883 ecec 2cc3 febf 2c44 e77a 4898 d53f
000004e0: b8d0 7717 4a23 f5bf e4c6 feb5 dedf f5bf
000004f0: 5031 1491 97c9 f63f e58e c0ff b78b afbf
00000500: a0fa 7415 d2c0 dfbf 172e 1f55 ddda f7bf
00000510: 108d 4fb9 70e2 f0bf 4b27 15d9 937d ddbf
00000520: 8fa6 6da3 b310 f2bf f1b4 e9a8 f0e6 b8bf
00000530: 9318 e3a8 789a e73f 0eab d88b bc6b debf
00000540: d8a7 17ba 9962 eabf 87da a916 3f77 d83f
00000550: 7197 e8d0 dc2e eabf c6b2 d54d 5e31 0240
00000560: a0fc f93a 81fa cebf 5360 2c8e 888d b6bf
00000570: f3aa 9f4f 8a24 e3bf d8a9 614b b3b1 f0bf
00000580: cf58 5075 6f46 0240 1658 08c8 17fd d8bf
00000590: 1edc c078 a363 f0bf d63a 2ae2 eb64 fa3f
000005a0: b0aa fb3f 9cde e5bf 704e 7e6d 0af5 e1bf
000005b0: 6315 0be5 a858 f03f bb09 cd7e 09bf edbf
000005c0: c31f 0547 c506 abbf 452a 0b4e eeda fd3f
000005d0: 0b44 2b0f a9b0 96bf 3366 e377 0630 febf
000005e0: 0f34 4766 815b e73f ae46 5cbf 31c6 e5bf
000005f0: d818 8103 c721 f9bf e332 07c8 a1d5 e93f
00000600: 5716 cd4f cea5 eb3f d45d 447d 5b4f e9bf
00000610: cb57 8d5d b7c0 0cc0 5c9f dc26 4514 f13f
00000620: 7c52 149b 6208 c83f 2f7a 5504 dfd6 f5bf
00000630: f8a5 54a9 10da da3f 9f2f b7c4 2eac ed3f
00000640: 3931 7bc6 2815 c4bf 49bf 9e5e b5bb d13f
00000650: d19a 72b0 700e 0640 ca71 bae0 48fa ed3f
00000660: 6b68 00ae 3d5a e43f 2f1f 64ac d248 ed3f
00000670: 2a2c 0163 eaae d9bf bceb f0e6 1b11 e33f
00000680: d8b4 69db ebbc f13f 1703 3641 e955 d4bf
00000690: fad4 0218 0251 e0bf 5662 af67 f9e8 febf
000006a0: 2ed3 fcd2 95f8 e0bf 469f 811f 4ff7 04c0
000006b0: fda4 5617 ed48 d63f 2cc3 f2fa 6acc d03f
000006c0: 3788 e5a9 70d1 c83f 3a90 573f 7931 f73f
000006d0: 6364 b1fd c71a f83f 7e44 2f72 1d57 593f
000006e0: 109b 55d3 da51 d33f 7513 19f3 ae05 b63f
000006f0: f55b e6ab 6093 f0bf e69b 233e 3d3a c2bf
00000700: 6c3a da21 a181 da3f 0fec 4897 7d42 e1bf
00000710: 82e0 a1b9 83ff f2bf e015 1ec7 6eaf f63f
00000720: d5f6 ab04 d96e c03f 0ef7 0fc5 a0a5 00c0
00000730: a9ca 7d54 067f 0140 73c8 e557 5aba dd3f
00000740: fb90 27ec 55ce f83f dfaf f0e7 97df d2bf
00000750: cdec 629b ee1d ddbf 4d07 2c54 0792 d6bf
00000760: f54c 9a9a dbf0 dbbf a5ac 99db 8e80 eabf
00000770: 7192 516a de25 e6bf 0e8e a162 815a 03c0
00000780: 281b bfbd 7b2c c23f e7fb 9f60 02e1 de3f
00000790: 703a 5db1 561d f93f e587 5567 88e3 fb3f
000007a0: bfdb 6c57 0df2 b5bf ec28 91d2 09c2 e4bf
000007b0: abb1 defc 60ae e4bf 4c33 5651 8758 ebbf
000007c0: ba13 ec1a 0aa2 8f3f 63e0 cb78 8092 c33f
000007d0: 787b f1da 3eb9 f93f a22c f775 4c39 acbf
000007e0: 2a94 7e47 fa23 c33f 9971 a12d ff51 ec3f
000007f0: ffa2 0038 46e2 0340 140f 1df0 b658 cb3f

biases f8 [1]
-0.2513584494809576
00000000: c903 06c0 4116 d0bf
