examples/models/sentiment_imdb/model.npz (npz, 13070 bytes, 2 tensors)

weights f8 [1, 1536]
00000000: e5aa 467c dda8 0140 c5cd 64c3 f090 c43f
00000010: d0ba 6a7d f51f e7bf 6357 5c0e ad06 fcbf
00000020: 17bd bc66 1102 bbbf 3e37 bccf 7a75 e53f
00000030: c103 25bd 9f7e e23f 422e 3a47 1972 e2bf
00000040: bc70 232a 263b d9bf 2f90 0438 d5ff f3bf
00000050: 3a7e 73f6 e0de f2bf 6006 ee90 4641 ecbf
00000060: 68e5 6b8b 3df4 fbbf 6d53 4f84 6b51 e7bf
00000070: f9d9 f3b7 f399 ee3f 6d70 d082 b2d9 ebbf
00000080: d2a4 b361 2e7e b3bf b3ef a744 0100 bc3f
00000090: 66ee d2c8 991c f13f 6ef9 0c85 38f2 e1bf
000000a0: fe68 d19a bf91 cdbf 9c79 8a7e d02a d1bf
000000b0: a900 cd78 f7e4 e53f aff2 4c24 ebea ecbf
000000c0: a255 6641 8e4d f9bf 9b97 474c 301c ef3f
000000d0: 4c23 9197 754f d33f 8efa 9e13 ad67 c83f
000000e0: 346e 8241 3716 f4bf 7a8a d784 8cf8 07c0
000000f0: 179a c465 dc58 c9bf 76d3 f21f 62d7 e73f
00000100: 8915 7035 4451 f1bf f92a d75d 5509 f73f
00000110: cf79 6d84 35cc dabf 8af5 7b93 97dd db3f
00000120: 085d 7f98 8e2e 05c0 5041 7ce7 eb47 db3f
00000130: cc51 968a dd01 d83f 5470 d654 c09c d7bf
00000140: 9e6c ba3e dda7 ec3f 107a a708 390d e73f
00000150: 6c0d 9a8a ffb6 e73f 46d6 edc5 bd7a 0b40
00000160: 5fb0 0d94 a313 fb3f 95cc 6260 a163 00c0
00000170: e5ea 478e 5949 ebbf 2d07 178a e9ff d13f
00000180: fb23 c74b cd0d f43f 8f34 827f c2a3 edbf
00000190: 252c bf10 29a5 f2bf cffc 121e 4cbb 0040
000001a0: 000c bce9 38ac df3f bf5c fdaa 0ebd d23f
000001b0: 94a4 1286 5402 ffbf 5136 3bf4 218b 00c0
000001c0: 9ba3 b07c e6e7 c73f f965 995f 1a52 f83f
000001d0: ebd5 03df 2cdc e63f 278d 3514 d0ee c1bf
000001e0: 6d3f ebe0 725f 9ebf 9073 eddd 1992 e8bf
000001f0: fa69 315c 9efe e3bf e094 1848 1d39 0040
00000200: 78f7 04e8 2a43 f43f 0935 2a8e a218 d9bf
00000210: a631 8845 9899 f4bf 73fe f146 88ae eb3f
00000220: 450f 7084 62b5 0140 c1c6 fcc2 a9b0 f63f
00000230: 9e72 f48a 396f f83f 8cad d0b9 67c8 e4bf
00000240: 6fea 9521 27e2 e4bf 0739 0219 68e5 0340
00000250: c7ad 1e63 988f e43f 6607 b0b6 ce6f eabf
00000260: 4342 565b d803 e4bf d175 c955 231a e3bf
00000270: 86e0 58bf a1c4 c33f 874d 17f7 9e4b f33f
00000280: f20a 1220 413f 00c0 1ebc 85d6 05cc 743f
00000290: 0fa1 47a7 43ea fb3f 37c2 1eb1 0eed e8bf
000002a0: e638 3b41 fbd0 dcbf 5c3e 285f 41a0 e03f
000002b0: 0fb1 ea83 6817 e6bf 87d6 1da5 6210 d6bf
000002c0: 47d4 f87e 65f2 d3bf f8d0 01ca 4044 edbf
000002d0: ecf9 3e75 4555 bdbf 7107 e049 80d3 f13f
000002e0: 3757 e496 4847 d63f 09c2 9696 264b d8bf
000002f0: 4d0d a254 3b7c 04c0 1257 03c1 d7cc fcbf
00000300: 82fe 6cb2 7b77 ddbf 79c4 c026 5ed0 e1bf
00000310: 23b3 7b73 9416 f73f f743 d2da 279e e03f
00000320: 9e98 64f0 1786 cabf c90d feba 7b89 0340
00000330: dd60 84cf 176a f83f a625 5537 8b1d e6bf
00000340: e4d3 5a96 c967 d83f 86e1 4919 1153 c8bf
00000350: d4dc f407 8162 b1bf cf8d bda5 4756 debf
00000360: a129 274f fb48 e5bf e024 67d3 4812 fc3f
00000370: 60dd dc16 360a debf 40a4 18fa 4199 ecbf
00000380: 9105 2ddd ea64 d53f e787 9acd b7c4 c8bf
00000390: 2165 77e9 8072 f53f 50d2 4570 abe3 ea3f
000003a0: 5b33 be46 2699 cebf 810c e0b5 15e9 f9bf
000003b0: a46e 33e0 8e37 f03f 9705 e8d8 0902 5d3f
000003c0: 88e2 e3a6 6a47 dd3f 43bd 7a0c f897 fa3f
000003d0: 7ecb 1186 dbae e63f 2882 d42b 26ef f03f
000003e0: 18f8 122f 4046 c83f d191 854d 1852 f23f
000003f0: de2c 685e cf32 ca3f 5b65 5c24 0db8 fabf
00000400: 2626 b4e2 af8e 0240 784c 48fa 5845 f0bf
00000410: 5a9e 2bf9 aacd f4bf 4515 22d1 bc9c ed3f
00000420: df02 06c6 5816 05c0 1b48 6c8b 8a4b bcbf
00000430: 37b8 2249 20aa f23f 118f f813 0ec7 e03f
00000440: 6d97 073e 40d5 f23f d75a c4d8 4051 ef3f
00000450: 7e51 ae3b 100f dcbf 9613 5cf8 1d33 ea3f
00000460: 5884 e15f b731 e33f 5269 13a8 a5a2 b7bf
00000470: 2313 f9a8 c44b c83f a173 e85d 30b5 b23f
00000480: ed67 ccea 0906 c83f ae04 0994 4e6c e73f
00000490: 686f 7949 03c1 ea3f 77d0 3fe6 80f8 00c0
000004a0: 3d0f a8c0 54c9 d23f 9e17 2ac4 e4f7 fa3f
000004b0: bbd5 0c03 53c7 f73f 3162 9d31 c58f f2bf
000004c0: bab5 22c3 ad6f f6bf bf39 529b ff28 fc3f
000004d0: 70de 0f30 92aa 93bf 2169 3182 f9c5 d7bf
000004e0: 6589 7644 320b 0240 d3d8 d355 e254 c5bf
000004f0: a1d8 b454 fe40 bbbf 586d 0c62 167d cebf
00000500: eb30 deb6 317e debf 81bc 51a0 081a c03f
00000510: 971c d5d1 caf5 0140 ec2b aa8b 4046 eebf
00000520: 4ec2 da38 8983 da3f 0d9f 5206 190e e93f
00000530: e00b 308d affd cf3f 2edd 4cca 1469 f5bf
00000540: 5b0e 00c7 dcbf adbf f6f7 a500 6f5d f63f
00000550: d276 c99a f287 f63f f26a e1c9 ebc5 dcbf
00000560: 2c26 df9e 14ea e0bf 4506 174d 9742 d7bf
00000570: 9236 ae73 1241 9ebf 5251 84ac a3a3 d03f
00000580: 56ee fcfc 0e02 d33f 39b9 3530 13b8 bf3f
00000590: 47cc e2ef fa68 cebf ee70 f042 8afb f83f
000005a0: 86f2 c237 2335 0a40 68f4 1bcf e692 0240
000005b0: 4d31 a5dd 8ed4 f03f f9bc 90b3 6fbe ca3f
000005c0: 8e19 2ae2 5eb4 e1bf 2e20 d2d9 e26c dfbf
000005d0: 23c3 f354 2d3f 0040 63a0 ba12 dcd1 b33f
000005e0: 9319 dc76 38bf e8bf 3893 3299 223a e23f
000005f0: ccf1 7110 7c18 e2bf f908 7a56 1ab9 fb3f
00000600: c907 a36e ef10 e43f d502 456b c6f2 b73f
00000610: 144b 4d3e 1e04 f3bf bc14 f434 4096 d03f
00000620: 76d4 f66e e609 f23f 1d8f cc7a 2c4c dc3f
00000630: 2ec7 727a 00c2 d53f c625 ac49 d925 f1bf
00000640: 4161 9125 4b2b d43f 0dfa 1660 03d8 cbbf
00000650: f410 3f23 a8ab ff3f d598 c609 f1cc fdbf
00000660: 6a5f 5ba9 e7b7 d43f a076 d26c bc65 9f3f
00000670: 4ac6 1a13 335d e9bf 0c92 8b71 256c a23f
00000680: f999 9df4 cdb1 c2bf 0347 f149 980a ddbf
00000690: a290 3487 560c ccbf 346a 5c57 bc7c f03f
000006a0: 0efa 0150 9979 c5bf d890 fb0e 2bae f4bf
000006b0: e7ce e692 91c0 bb3f e00d a4fe b665 d5bf
000006c0: d418 7fba c91e 09c0 a185 8398 5f8d 8bbf
000006d0: b1f0 da16 6ad4 c43f a282 5a41 5f6d ef3f
000006e0: ca74 7fc1 9de8 0540 60c9 e17a c62f f3bf
000006f0: a72f afd6 7850 f0bf d9b3 39e4 bfc5 ef3f
00000700: 2757 1d2d 18e5 f4bf 1751 a1a5 182e f1bf
00000710: 4a79 dfe8 fefa e4bf bb27 da86 8df1 f23f
00000720: d0a1 c1ee 0df4 f7bf b3fa 666a 055b e03f
00000730: 668d 5708 9559 fdbf ca80 76c8 cc55 b2bf
00000740: 1590 bdbf 2397 fbbf ccc2 c557 da9d 0740
00000750: 36de c0c1 e7ff d93f d1bd ee54 af8f cfbf
00000760: a282 07fd 06aa f03f c441 8eb9 962f d1bf
00000770: 32ca 7a59 a6b8 ea3f 403b f3e1 1e62 c93f
00000780: 6da6 6ce5 c6fa fa3f 7e53 2393 aa0f c2bf
00000790: 1890 ac23 dc07 e33f f511 b976 abf1 f3bf
000007a0: 81fa 56d5 33b1 b03f 38ee 3425 e56e efbf
000007b0: 22b9 7c00 a505 f0bf 4b16 77d1 bf04 f0bf
000007c0: 4722 b219 db05 f23f 0924 f9a1 d0bc d23f
000007d0: f961 cddc 50aa 0340 8cec 17af 8979 d63f
000007e0: 07e6 f4e8 2476 e03f f736 91e6 1919 ecbf
000007f0: fb54 f860 3539 d4bf 84df e956 c666 e63f
2.207453699976542 0.16067323246680423 -0.7226512383984645 -1.751629882904546 -0.10550030477746862 0.6705907876327968 0.5779570287924046 -0.5764280692250809
-0.3942351733692353 -1.2499592006870548 -1.1794137598989338 -0.8829682188663348 -1.7471290060187474 -0.7286889633347592 0.9562929718802585 -0.8703243784871241
-0.07614412198349221 0.10937507558986574 1.0694825977979234 -0.5608179663320649 -0.23101038989518224 -0.2682381854773668 0.6842000350370842 -0.9036765774722734
-1.581434493510962 0.972190999015527 0.3017248134752222 0.19066394289071237 -1.255423789879285 -2.996361768558299 -0.198024320308108 0.7450419067377954
-1.08234043954994 1.4397786775249968 -0.4187139313925429 0.4353999080920735 -2.647732917200873 0.4262647400473911 0.37511385473160597 -0.3689423397534075
0.8954912400398773 0.7203641099002329 0.7410886485162513 3.434932276077947 1.6922946723307388 -2.048647645011054 -0.8527038363384604 0.28124464497897145
1.253369613654512 -0.9262402048494937 -1.1653223661585426 2.0914537763161216 0.4948866159977001 0.29278914163792175 -1.9380688893527678 -2.0679358559198495
0.18676453674677593 1.5200446829170444 0.714376864982737 -0.1401004885366117 -0.029660983064615665 -0.7678345999262195 -0.6248313713688838 2.0278878815175716
1.266398340535913 -0.39212859996116883 -1.287498733148007 0.8650552163744137 2.2135668131540194 1.418130647344171 1.527154486458279 -0.6494635228349792
-0.6526065498322405 2.4870149568370183 0.6425287185606344 -0.8261483734242858 -0.6254693778919961 -0.5969406772161908 0.15443822711108995 1.2059621479027969
-2.030885935354825 0.005077383808710171 1.7446934255950202 -0.7789376696947049 -0.45025521631477117 0.519562421659383 -0.6903574539660741 -0.34475008129752677
-0.31166970634086905 -0.9145816750956604 -0.11458238708926388 1.1141360173937438 0.34810080276053007 -0.3795868368715963 -2.5606600391344387 -1.80001044650766
-0.46041767525091626 -0.5566855198759547 1.4430126677572808 0.5193061136106952 -0.20721720922410197 2.442130528333767 1.525901613820728 -0.6911064224924999
0.38133468325696485 -0.1900349973182182 -0.06790930217981678 -0.47401610551443424 -0.6651588960606213 1.7544639833379776 -0.4693732474583694 -0.8937082180683618
0.3342845115585869 -0.1935033563541417 1.340454971292566 0.840291709215828 -0.23904875234839093 -1.6194054703235283 1.0135639913413934 0.0017705055394120256
0.45748392389172254 1.6621017920950443 0.7088449114365714 1.0583860122789108 0.18964388178386637 1.1450427082246402 0.20467559919084172 -1.6699344082211016
2.3196714125849835 -1.016930558839503 -1.300211880990807 0.9253830036765655 -2.635911509569595 -0.11052766708260757 1.1665346962795533 0.5242987051064764
1.1770632193597195 0.9786686166506467 -0.4384193976232139 0.8187398768210297 0.5998188851045922 -0.09232554772771565 0.18981226206428756 0.07307722370792515
0.18768428768890946 0.7319710627854386 0.8360611376806277 -2.1213396061157783 0.29353827299222585 1.685520902888562 1.4861631507059048 -1.1601001680447889
-1.4022653219684416 1.7600093905672194 -0.019205364402266445 -0.3714584132591359 2.255466971270993 -0.1666529578284953 -0.10646047180202568 -0.23819236552740608
-0.476452282506911 0.12579448536004992 2.245015754047539 -0.9460756995989619 0.4142783217639917 0.782970917080975 0.24992937463693377 -1.3381545927384866
-0.05810441903306859 1.397810938389282 1.4081903501859654 -0.4495801421632414 -0.5285742857897211 -0.3634393933135452 -0.029545105276659607 0.2599877533659952
0.29700064378605384 0.12390251090048289 -0.23757874215297844 1.5614111532987027 3.275946078907796 2.3217292957693196 1.051894059945954 0.20893665569153777
-0.5532679002069913 -0.4910208823353085 2.030848182381662 0.0774209542966005 -0.7733423539619245 0.5695965759410688 -0.5654888459389951 1.732691133308036
0.6270672951579793 0.0935482036484346 -1.1885054048222559 0.25917058154329786 1.1274170240915544 0.442149276658016 0.3399659343514142 -1.0717404249029285
0.31514242810000687 -0.21752969924814672 1.979408395463051 -1.8625345594278333 0.32372466601144956 0.03066152967641378 -0.7926268933426368 0.035981340513704024
-0.1460511631405124 -0.4537716600508334 -0.21912652589629028 1.0304530537165535 -0.167773403230925 -1.2925215325604338 0.10840711437668525 -0.33433318011540614
-3.1400332040821954 -0.013453242151117819 0.1627323733899906 0.982101085323013 2.7385821454068706 -1.1991638946606926 -1.0196464906793865 0.992889352562652
-1.3059312593736168 -1.0737539739539608 -0.655639128522844 1.1839728610670892 -1.497083599702922 0.5111109808129498 -1.8343706441745211 -0.07162170309175334
-1.7243993272650233 2.9520766122080655 0.4062442199824291 -0.24657241484736273 1.041510570903633 -0.2685295879428191 0.8350402591370936 0.1983069041511616
1.6862248384371938 -0.14110309776756574 0.594709462810445 -1.2465014112104857 0.06520389517297966 -0.9822869993872194 -1.001378061202168 -1.001159494613051
1.1264296535247398 0.29277435128875645 2.4581620454957798 0.3511680803200725 0.5144218969282414 -0.8780641082064155 -0.31599173040133594 0.7000457475214579

biases f8 [1]
00000000: a2a1 cd8e 7300 ef3f
0.9688051022649697
