examples/models/multiclass_ag_news/model.npz (npz, 49974 bytes, 2 tensors)

weights f8 [4, 1536]
-2.470814998292896 0.8985168559136845 0.030891809359644095 -0.11399271555380777 0.5803015821295466 0.40602831505173775 -0.19624789273175727 -1.3519682335333787
-0.9730957182557368 -0.17858654031563184 0.31351751037092723 1.0207207105174139 -0.6843577818089907 0.7907605882853748 -2.0504062086739188 -1.8662637008670195
-0.38940884371214624 0.6835415449041826 -0.5085794572253829 0.36986717467673164 0.4357495303098193 -0.4853308017930641 1.3238875189504278 1.5359147413567114
0.2922089339142188 -1.1853989608127633 -0.5568368884183755 -1.1038117007825077 0.8624219677769749 -1.9819607738383165 0.7689856527780841 -0.5433641242630973
-1.1119680719469198 0.7817919166815076 1.3313111007867016 0.446781122625205 0.7427179182548376 1.3509974984700424 0.6852208706543177 0.7386837732300692
-0.42299208510724573 -0.6125502731638824 -0.32135023419988556 0.9078510103872982 -0.3543817484820982 -0.6469610296734671 1.1263732808119364 1.2846569023585486
-1.0712842095990964 -1.194058386903013 1.0304328857995564 -0.9718957368430672 -0.33206958244024515 0.26029065679782604 -1.158507663874154 -1.3309099066825503
0.09760476034119778 0.2452879549333594 -0.16407484547763238 -0.3252247556386861 0.21173112508328604 0.24393570610707846 0.9840525579073817 0.7887000064067711
-0.3869373236672589 -0.7119909116338567 -0.644306987854412 0.9482385845980791 -0.4535395214394162 0.6063658152462824 0.9850831714498282 0.21959264612113508
-0.31368926982476997 -1.5195014659409494 1.7099427245320844 0.345135853441865 0.8570504131440189 0.6160879727877344 0.018385412190656515 1.1828273210587477
0.2486642278083603 -0.4098069438908769 0.6517496248445551 -2.4264817541070633 0.08996172366131583 -0.822074003403266 -0.740968043874174 1.454761523410419
2.668189827108147 -2.669289558791683 -1.9537272429414008 -0.751607125479213 2.532351241944461 -0.8230153223312572 -0.1621262558131297 -1.5362291447272942
-1.323803592958486 1.9666313170629444 -0.009562615970214065 -0.9543861293856536 -1.0014343224175206 1.0108716239500493 1.1850216514874274 -0.3710458760662064
3.191542750476931 0.6442250138695965 -0.4158011549043426 -0.9318192194131731 -0.1304915177829411 -1.5713684164498027 0.8945660909236803 0.3932826928599038
0.7013094675490529 -0.8551907076832661 0.5552479420124845 -1.2493983182452082 0.8514103404979603 -0.7000989898292187 -0.46472324724539366 -1.0879029874286663
-1.1949356563748632 -0.2046188759213774 -1.2862121182316923 0.4796070843576319 0.6160508368245401 0.04894092309345345 3.1714184775569523 -0.08506707640344664
-0.6012430432025335 0.08879919088719379 -0.23858973536859457 0.21440776174462858 0.3807858682871305 0.24917773747820893 0.9249456659962842 0.02168750336557904
0.7215952938884512 -0.7523424578390094 -1.1519129588705157 0.05926036930273942 0.10877846080998592 -0.1191766670782688 -0.6169837193993334 -2.028994744152536
0.19667146828080087 0.7335892091154783 0.6898524985910957 0.6591321162775408 -1.236441328110021 1.3910914885891763 -0.27372531565673336 0.10500897362142908
1.9553598777459384 0.5420568918087533 -0.5330704246757576 0.25682717380369874 -0.4647742540953043 -0.7842030591520701 -1.2950262811101956 1.6278446235057762
0.0200033980287501 -0.24157954455212066 -0.48197907017263 1.178892357578779 0.08321771346956393 -0.7189323102644508 -2.806555525183176 -0.2581823618447597
-0.8074592551680433 0.5614771391000507 1.4624112884120752 0.42927524835798125 1.154640307807997 0.8786023143868464 0.7003066407647045 -1.7393069313607554
1.3331110754787892 -1.8977161456492109 -1.6579921330164304 0.24467813436567887 -2.6577846795250117 0.531540590441588 0.3642396246027388 1.0945359184548469
-0.8866419672905023 -1.3406653827914443 -0.6683153070914027 0.9416092915563059 -0.7213014669309961 1.1685115712057044 0.06876847331966847 -0.10554447777517861
0.5020099445170141 -0.6180099423496584 0.25445304348240155 0.14109853445703108 -0.7487209763596362 1.1305393411256393 -0.05608438029420146 -1.61052522004013
-1.0113985919291557 0.4197298455677275 -0.5333953763945649 -1.0485440173699556 -0.6835006943952996 -1.2880969319605777 2.2431738559791854 -0.5568196095956883
-0.9569958765446164 1.4425425699384262 -1.8944173062675533 -0.8088586845426851 1.0268884506853486 -0.3665545502497932 0.9508633844385423 0.8208630854498274
0.08249873945210856 0.5784870266320168 -1.0608997022618003 -0.899114075890487 1.1955543687528551 -1.1197161102538464 0.3928436311240276 0.23527471818182444
-0.5761369865183246 0.21525193718226257 1.914927325345361 2.1625219856456632 -1.9982578083789015 0.47522495222574745 -2.1314766933895024 -0.5469351744097224
0.7918522607016347 -0.5354797148156525 1.062342532427847 0.6888986933918232 -0.1833125788194097 -0.9533647560612758 0.24116467480905626 -0.16090602964364578
0.41963108910478847 -1.9469080788166577 -0.00034880555010939444 1.0507150146259945 -0.4389541249096269 0.15816193474976334 -0.3054035845783776 1.3407592413378357
-0.8570899146720349 0.8789349332040733 0.15161458160789876 -1.5432524599595652 2.4324437163581436 0.3622252181948631 1.3166323332748477 -1.6297826456642333
00000000: 0413 61a7 3ac4 03c0 86ba e16b a6c0 ec3f
00000010: 63df a73b 1aa2 9f3f 7a2c 4969 a02e bdbf
00000020: df07 a29f d491 e23f b26b 992f 5efc d93f
00000030: 598d 98a4 a61e c9bf a81b 4471 a9a1 f5bf
00000040: 1327 b9a1 9923 efbf 8da9 147b ecdb c6bf
00000050: e60d 71bf ab10 d43f d55a 603d df54 f03f
00000060: 3b3f 744a 42e6 e5bf 50d8 3426 e94d e93f
00000070: 9e28 ce5e 3b67 00c0 f0f8 8e53 37dc fdbf
00000080: f613 2112 13ec d8bf d443 9a84 92df e53f
00000090: 176a 066d 4846 e0bf 4b6e c65e e7ab d73f
000000a0: eb64 7bff 51e3 db3f ae54 5cec a80f dfbf
000000b0: 3d98 d7ad a42e f53f 5924 f955 1b93 f83f
000000c0: 97ad b019 8db3 d23f 8673 96e6 64f7 f2bf
000000d0: 8dd3 1e98 9bd1 e1bf 1fd9 3c75 36a9 f1bf
000000e0: c487 5ef4 f598 eb3f 5e72 1980 1cb6 ffbf
000000f0: 7acd b8cc 879b e83f 2af3 f028 3d63 e1bf
00000100: c554 7308 9fca f1bf 4f93 4d7b 7004 e93f
00000110: eae3 6ade 0c4d f53f 944e 89d9 0f98 dc3f
00000120: ead8 215e 58c4 e73f 9b81 8e8d af9d f53f
00000130: f0e6 bf51 54ed e53f 277d 0327 4ca3 e73f
00000140: 7428 0065 4d12 dbbf b9a1 cc07 039a e3bf
00000150: 29d4 9c92 0091 d4bf c920 e88f 1d0d ed3f
00000160: 09ea 01c9 30ae d6bf 267d 079e e7b3 e4bf
00000170: d0ce 42fd 9f05 f23f bf5e 6365 f48d f43f
00000180: 7330 4fe9 fa23 f1bf 1135 94f7 dc1a f3bf
00000190: 43b6 9331 a77c f03f 069c 9b16 c519 efbf
000001a0: 51f1 24c7 a040 d5bf 5caa 9924 9aa8 d03f
000001b0: e013 0855 3f89 f2bf c3fb b12f 684b f5bf
000001c0: ce6f 9925 a0fc b83f e34f 4580 9865 cf3f
000001d0: 871a b68f 6700 c5bf fd55 547e 7bd0 d4bf
000001e0: 7795 e368 011a cb3f ab3d 0704 4939 cf3f
000001f0: 373c 38ca 5b7d ef3f 04e8 bbcb 073d e93f
00000200: 512b b0c3 94c3 d8bf 5288 102a a1c8 e6bf
00000210: 3168 2db0 299e e4bf 37ee b471 f857 ee3f
00000220: 70a6 01a1 ca06 ddbf 29a5 3c48 5967 e33f
00000230: 71f1 a624 cd85 ef3f e924 c4a0 9c1b cc3f
00000240: 7439 c028 7c13 d4bf 060c e7c4 e04f f8bf
00000250: 0260 fee6 ec5b fb3f 556e cdb0 b416 d63f
00000260: 5a42 effc f46c eb3f daa1 d21f feb6 e33f
00000270: 6a53 5420 a0d3 923f aa33 4c57 dcec f23f
00000280: bd9d 0fbb 3ad4 cf3f 6cd7 6be7 463a dabf
00000290: 7e67 7c07 22db e43f 2bd8 1144 6f69 03c0
000002a0: 5863 0445 bb07 b73f 4148 f023 6e4e eabf
000002b0: ef42 7a9d 02b6 e7bf 226e e804 b446 f73f
000002c0: 5798 77e8 7358 0540 3284 f47b b45a 05c0
000002d0: 0fcd 5b7f 7742 ffbf 13f6 eb62 2a0d e8bf
000002e0: 7017 315e 4142 0440 f5a0 b03a 2456 eabf
000002f0: 4529 459b 8dc0 c4bf a240 fc02 6594 f8bf
00000300: 0958 21ad 4c2e f5bf 3032 6166 5277 ff3f
00000310: 9ca7 d996 9095 83bf fff4 aec7 548a eebf
00000320: b300 fefe df05 f0bf 321e 55b9 872c f03f
00000330: ec0b 6343 d9f5 f23f 1a48 c133 37bf d7bf
00000340: a9ac c890 4788 0940 d7b8 bac6 7d9d e43f
00000350: ed00 7d72 7c9c dabf 123e 258a 76d1 edbf
00000360: c03d a430 f2b3 c0bf 4ae8 6935 5324 f9bf
00000370: b016 1411 49a0 ec3f 60a1 fa2b 8b2b d93f
00000380: 87f2 6f8d 2071 e63f 98f7 2ae7 b85d ebbf
00000390: 78ad 0355 97c4 e13f 2ca6 4817 89fd f3bf
000003a0: 6247 fde5 c03e eb3f a4ee 28ff 3567 e6bf
000003b0: 6708 2793 06be ddbf 0fa1 83f6 0c68 f1bf
000003c0: f144 cfd9 741e f3bf 2801 1d8a f330 cabf
000003d0: 5262 7828 5394 f4bf 84bd 8fe9 e1b1 de3f
000003e0: f2b6 9a3e b0b6 e33f a2af 3ee0 c80e a93f
000003f0: 3a4c 98a6 105f 0940 bd7f 1eb7 f4c6 b5bf
00000400: a213 f00c 623d e3bf f891 c534 8bbb b63f
00000410: 5ee2 48c3 1b8a cebf 9bd2 59aa b671 cb3f
00000420: bf9e c4b0 cb5e d83f 681a ae5c 0ee5 cf3f
00000430: cafd 40a7 2799 ed3f 898a bfb6 3f35 963f
00000440: 5959 8603 4f17 e73f 1cf2 797d 3013 e8bf
00000450: d4ff 6248 3c6e f2bf e752 3508 6057 ae3f
00000460: cb27 b0bb e7d8 bb3f 5025 8caf 5c82 bebf
00000470: a981 1fa4 54be e3bf d420 af98 613b 00c0
00000480: 7942 29da 872c c93f fa2e bb13 9079 e73f
00000490: 9067 108c 4513 e63f 46f8 643c 9c17 e53f
000004a0: 4c7c bab3 76c8 f3bf 63c0 1326 e941 f63f
000004b0: ff4e b52f b784 d1bf a495 7d3b dee1 ba3f
000004c0: 1345 6d70 2749 ff3f ed7a dcb1 8758 e13f
000004d0: 8c4f 0eb5 e90e e1bf ed80 0d3e db6f d03f
000004e0: 132d 5783 dcbe ddbf c466 8f03 3118 e9bf
000004f0: bc42 4d7a 6db8 f4bf efd3 cecd a60b fa3f
00000500: ab91 5e51 c57b 943f 86f1 9d19 14ec cebf
00000510: 2ade efbd bed8 debf 13e2 943b bedc f23f
00000520: 8db7 cc8d c14d b53f 0df4 1355 7e01 e7bf
00000530: 0b8f 1862 d373 06c0 f9be 2150 0f86 d0bf
00000540: 9493 b9ca b4d6 e9bf 115d bce7 9ef7 e13f
00000550: 557f 1061 0966 f73f f681 2be4 3e79 db3f
00000560: 0adc 8a1d 6879 f23f c267 cf99 821d ec3f
00000570: 5e31 e878 e968 e63f b368 3e81 33d4 fbbf
00000580: 5cde 7147 6c54 f53f f878 ea9a 0b5d febf
00000590: 2a4b 45c2 2287 fabf 1ccd 92f4 9c51 cf3f
000005a0: 48f5 329d 2443 05c0 4a2e 8e69 6102 e13f
000005b0: 7fde e4b6 b34f d73f 68f9 6018 3883 f13f
000005c0: 0bc3 98f9 5e5f ecbf 487f 5f8b 5d73 f5bf
000005d0: f0f5 6bc8 d662 e5bf 9002 1bcf a921 ee3f
000005e0: 84d0 60d0 e614 e7bf 9b37 7530 39b2 f23f
000005f0: 0d61 e787 cf9a b13f c05a 5180 f604 bbbf
00000600: 88f4 be28 7710 e03f ffd3 5fc9 bcc6 e3bf
00000610: 21f9 076b f548 d03f 42d4 804b 840f c23f
00000620: 0767 69b1 85f5 e7bf bb9d 8f6b b016 f23f
00000630: dc2b 5c86 17b7 acbf fc49 d717 b6c4 f9bf
00000640: 16e6 384a b02e f0bf d695 f791 dadc da3f
00000650: f878 2e2e 9311 e1bf 9f53 7017 d6c6 f0bf
00000660: 4513 27d9 3cdf e5bf f193 4d87 0b9c f4bf
00000670: ed61 7522 05f2 0140 de84 9f5b 77d1 e1bf
00000680: b74f 05d1 b59f eebf c692 8f84 a714 f73f
00000690: 3454 7685 884f febf 0449 a69b 2be2 e9bf
000006a0: c256 8595 226e f03f 6276 6137 a175 d7bf
000006b0: c813 640c 796d ee3f 6d05 50a9 8244 ea3f
000006c0: bc74 e82b a31e b53f f26e 9139 f782 e23f
000006d0: 22cf 58f7 71f9 f0bf 3a55 eae1 8ac5 ecbf
000006e0: 8f22 269e fd20 f33f 7c83 a570 5bea f1bf
000006f0: 4da7 079d 5924 d93f 9851 1562 7b1d ce3f
00000700: 1e97 63d5 b66f e2bf 799a 4c1f 608d cb3f
00000710: 8433 c9d5 8aa3 fe3f 35d5 a953 d84c 0140
00000720: 9d6c ff2d ddf8 ffbf 3860 03eb 156a de3f
00000730: 625a 12a7 430d 01c0 e6e5 e331 7e80 e1bf
00000740: 1e45 5f8d da56 e93f 90bf d95a a622 e1bf
00000750: b9d6 1ee2 5aff f03f 1900 cc45 750b e63f
00000760: d2c5 7c5d c976 c7bf 7b26 0ece f681 eebf
00000770: 05b0 a0eb 7bde ce3f a93a 869b 9198 c4bf
00000780: 63c1 055b 3cdb da3f 2c5f ed15 8926 ffbf
00000790: e096 2d6e fcdb 36bf c6c1 138c bacf f03f
000007a0: e797 bb0a d317 dcbf f774 9c78 a63e c43f
000007b0: 6c19 f679 bb8b d3bf 42b1 55f6 bf73 f53f
000007c0: 25ee 27d4 476d ebbf d18c 2d27 3c20 ec3f
000007d0: 9423 cd4a 1b68 c33f 53f7 cf7d 29b1 f8bf
000007e0: 90f3 180d a575 0340 d8bc 7bae b22e d73f
000007f0: a758 c410 ed10 f53f b675 abf7 9613 fabf

biases f8 [4]
0.9689112760043714 -1.2547302799827198 -0.4896797023216528 0.7754987063005258
00000000: ce42 6538 5201 ef3f 2f3a dd0e 6013 f4bf
00000010: 0c23 bf88 e956 dfbf 8bd5 b4a9 e2d0 e83f
