examples/models/multiclass_ag_news/model.npz (npz, 49974 bytes, 2 tensors)

weights f8 [4, 1536]
000000 76 a7 19 21 f2 b2 03 c0 85 67 ea 0a b1 18 ed 3f
       -2.462375887484934 0.9092641080089697
000010 80 80 75 ea 84 c9 a5 3f 60 e2 7d 14 66 35 bb bf
       0.042553094501955435 -0.10628355026518355
000020 c2 a4 b4 30 71 32 e3 3f eb 97 dc b2 76 71 db 3f
       0.5999074889451992 0.4288002726265165
000030 de c8 22 08 a7 91 c9 bf c6 db 3d 3d 2a 65 f5 bf
       -0.19975746056804317 -1.3371984855891568
000040 5c 40 b3 e6 81 a4 ee bf 0c 3d 20 37 a3 73 c7 bf
       -0.9575814729560181 -0.183216478268584
000050 86 a7 01 0b 98 18 d5 3f 1b 17 dc 40 49 d9 f0 3f
       0.3296260936245904 1.0530483754714115
000060 c0 5b 53 d5 2d 41 e6 bf b8 db 9a cb f6 4c e9 3f
       -0.6954564253345481 0.7906450249346255
000070 e2 f3 d4 b8 b2 71 00 c0 38 ec 69 90 1b 01 fe bf
       -2.055516666411209 -1.8752704278147245
000080 d0 90 5b e5 21 aa d9 bf 3f 09 ae c7 23 bf e5 3f
       -0.4010090579815939 0.6795824909207012
000090 2c c1 9c e5 a5 63 e0 bf 3b ef 59 b6 13 47 d6 3f
       -0.5121640667548824 0.3480881958746413
0000a0 5e b3 a1 b3 fa 77 da 3f b5 42 b1 79 d7 99 de bf
       0.4135729555335298 -0.4781397522356586
0000b0 ab 3f 6b 8f 28 7f f5 3f a9 1e 60 23 23 b1 f8 3f
       1.343544540624843 1.5432464010099614
0000c0 4c 8b b7 24 6f 1e d2 3f 2b 55 3f 67 b7 31 f3 bf
       0.2831075533451226 -1.199637797651415
0000d0 ef d9 c9 e7 a5 3e e1 bf e3 6e 8e 7b 14 e9 f1 bf
       -0.5388974692457945 -1.11940429939471
0000e0 c6 5f 9a 29 18 72 eb 3f c5 44 37 a7 a5 5b ff bf
       0.8576775372084675 -1.9598747760649513
0000f0 b6 ea e7 ff e2 db e8 3f de 1b 2e 28 49 d8 e1 bf
       0.776841640297184 -0.5576520714538409
000100 e5 0f 2c f5 e5 dd f1 bf dc 7a 1e cd 02 30 e8 3f
       -1.116674382880768 0.7558607107383426
000110 ad 4b dc 73 94 94 f5 3f e7 0a 66 d6 72 1d dd 3f
       1.3487743879129355 0.4549223989235273
000120 63 ae 4c 3b 25 01 e8 3f 75 55 81 07 db ac f5 3f
       0.7501398237413465 1.3547010701343798
000130 51 b0 b0 b4 14 45 e5 3f 78 86 af 37 67 df e6 3f
       0.6646827248673707 0.7147708976373925
000140 f1 38 16 02 94 23 da bf 10 7a 6d 04 a0 c6 e3 bf
       -0.4084215183619469 -0.6179962240674417
000150 98 e6 35 65 c3 bb d4 bf 38 b4 8a 96 36 07 ed 3f
       -0.32396016010134465 0.9071305218000196
000160 4a 16 84 fb 0f 35 d5 bf f1 7d fc 63 bb 86 e4 bf
       -0.3313636738024327 -0.6414467766625745
000170 48 01 31 b4 6a ed f1 3f f4 ff dc 50 bc 24 f4 3f
       1.1204630888679095 1.2589686545106789
000180 4a 1b 15 f4 21 2e f1 bf 68 27 f4 ed cc 49 f3 bf
       -1.0737628492804157 -1.205517701632255
000190 2a 3a 7a a9 30 b6 f0 3f 01 ee 00 2a 00 fd ee bf
       1.0444800014698878 -0.9683838673003607
0001a0 46 9d c0 0b 19 91 d4 bf 68 7a 85 fb 4e c8 cd 3f
       -0.3213560690660028 0.23267543107336341
0001b0 87 0a 73 0f 81 e0 f2 bf 8d f4 e7 83 cd 23 f5 bf
       -1.1798105815402395 -1.321240916498286
0001c0 60 66 a4 c9 7d 85 b3 3f ac 78 e6 c1 4f f6 cb 3f
       0.07625566647438964 0.21845433204447795
0001d0 55 c6 da 7e dc ba c4 bf 2f 39 c7 75 6a 9b d3 bf
       -0.1619525546462223 -0.3063608312776464
0001e0 69 eb 11 9c ac ff cf 3f d8 e8 ab 55 c3 63 d1 3f
       0.24999005909543406 0.27171405187949693
0001f0 7e ea da fa af 8d ef 3f 6b 77 53 63 ea 70 e9 3f
       0.9860458278192963 0.7950336399041878
000200 da 31 d0 e9 b8 c0 d9 bf a1 53 9c ce 52 f9 e6 bf
       -0.4023878367741226 -0.7179349933017997
000210 7f 17 57 64 88 b6 e4 bf fe 37 fe ac ce af ed 3f
       -0.6472818336267067 0.9277108553667401
000220 df 9f 85 43 09 b0 dc bf 11 a7 65 d6 34 0e e3 3f
       -0.4482443961519475 0.5954841792529085
000230 c6 5c 9a 40 10 b2 ef 3f 3d 5d 0c d2 6c b8 cd 3f
       0.990486265351955 0.2321907067896322
000240 85 db 6f d1 de 56 d4 bf 21 6f ec f2 fb 3e f8 bf
       -0.31780214741541385 -1.5153769959642391
000250 fe 29 f3 98 4c 9c fb 3f 35 2b 56 17 39 bf d5 3f
       1.7256589865306746 0.3397963264366582
000260 c3 72 8f f7 c6 f5 eb 3f 97 10 91 55 60 44 e3 3f
       0.8737521014368997 0.6020967169975106
000270 59 ab 0d a4 2e 01 94 3f 9e 90 f3 e4 e4 4f f3 3f
       0.019535759699844977 1.2070054000296646
000280 70 67 bc b7 c1 19 d0 3f a2 91 58 e7 1b 69 db bf
       0.2515720648094577 -0.4282903441656122
000290 33 5f 07 d8 ff cf e5 3f d7 3b 3e bd ec 80 03 c0
       0.6816405505478315 -2.437951544248317
0002a0 8d 2a 29 6b 5b 3f b5 3f 86 2f c0 be a2 a7 e9 bf
       0.08299800268393139 -0.8017133451080418
0002b0 33 71 cc a3 14 e5 e7 bf b7 3a c7 8f d8 0e f7 3f
       -0.7467139434043361 1.4411244980180251
0002c0 b2 55 72 b4 b3 9d 05 40 ce ca a7 27 52 4b 05 c0
       2.70200291608736 -2.66177779179393
0002d0 a4 3c eb 4b 07 5a ff bf 51 0b 0b e8 d7 92 e8 bf
       -1.9594796147901343 -0.7679252178280455
0002e0 2e 40 21 50 16 4b 04 40 04 ed 55 93 8b 70 ea bf
       2.5366636524340924 -0.82623842979902
0002f0 0a 03 32 27 37 cd c2 bf 31 aa f9 b3 0a 88 f8 bf
       -0.14688767827831156 -1.5332133322032286
000300 32 35 9f b4 66 89 f5 bf 0e 91 51 ef 5c 70 ff 3f
       -1.3460452132743055 1.9649323795684412
000310 40 43 b6 a3 23 7f 17 3f 71 1e 99 12 66 47 ee bf
       8.963255907291651e-05 -0.9462156642193361
000320 3f 6a 4c af 72 1a f0 bf b3 b3 8c a4 ea 89 f0 3f
       -1.0064570281598575 1.0336710384101309
000330 9d fa 51 b8 9d af f2 3f bd 97 05 f5 66 5f d7 bf
       1.1678750228890415 -0.36519788673319536
000340 6b aa ce b6 02 ae 09 40 e2 e5 fe a5 5d cf e4 3f
       3.2099661142176976 0.6503132097342894
000350 aa 82 d6 a5 d1 9c d9 bf b3 5e 3b 34 20 c0 ed bf
       -0.40019646830664135 -0.9297028560785833
000360 fc 03 63 97 c6 69 b8 bf 30 a7 d4 49 6b ec f8 bf
       -0.09536400981870935 -1.5577195056925568
000370 d2 35 3b 3f cf af ec 3f 1a 83 3a a7 bc 53 d9 3f
       0.8964611277567036 0.3957358964053569
000380 49 dd 32 1d 6d c8 e6 3f 47 8a e5 ff a7 41 ea bf
       0.7119660921370407 -0.8205146787625573
000390 0f 8d fb 91 e9 60 e1 3f 18 82 9c fa 61 e2 f3 bf
       0.5430801249716825 -1.2427692212587598
0003a0 6a c7 13 80 55 80 eb 3f 93 b3 53 bc 0e 78 e6 bf
       0.8594157697209373 -0.7021554640065112
0003b0 78 04 11 f8 54 3b dd bf bf 9a cd 44 47 ce f1 bf
       -0.4567463324093022 -1.112860935938144
0003c0 1d b9 f0 2a 88 42 f3 bf 1d 54 c2 f9 9d c9 ca bf
       -1.203743140922206 -0.20927786536472662
0003d0 f2 e5 87 90 b3 d2 f4 bf 1c f2 0a 96 02 96 df 3f
       -1.3014407773720191 0.49353089001286476
0003e0 3a 1c 04 d1 f6 42 e3 3f 2f c5 22 bd 1b 23 a6 3f
       0.6019243318886602 0.04323660548960572
0003f0 ce 00 81 db 37 6e 09 40 1d a2 36 ff ac bf bb bf
       3.178817477106441 -0.10839349013134165
000400 8c 49 29 83 42 f5 e2 bf 74 a9 66 88 76 31 b1 3f
       -0.5924389421218605 0.06716099577048401
000410 e9 7f a6 cc 2a 0e cc bf 40 10 66 80 e4 ae c7 3f
       -0.21918234818167484 0.18502479810206474
000420 cc 2e 4d b2 c6 75 d9 3f c6 88 f2 e6 41 93 d0 3f
       0.3978134862161198 0.2589878802629183
000430 67 4e 53 e4 f7 17 ed 3f fc 1f 52 15 b0 a2 7b bf
       0.909175821254803 -0.006746948075608824
000440 c1 96 eb 7e 1e d2 e7 3f 30 c6 dd 09 eb 64 e7 bf
       0.7443993071471696 -0.7310691063596035
000450 49 44 e0 d9 45 d3 f2 bf 85 4d db e0 bd 4f 9f 3f
       -1.1765802870543374 0.030577627991829743
000460 0e a8 f2 cc 99 9f be 3f 78 eb d8 b0 bc 60 bb bf
       0.11962281468973421 -0.10694484059869847
000470 bc 66 40 03 ad ff e3 bf 23 58 36 93 a3 54 00 c0
       -0.6249604285723858 -2.041327619644123
000480 5d 4d cc 12 c4 2a ca 3f 9e e1 68 da 12 91 e7 3f
       0.20443011205552866 0.7364591852011022
000490 e0 9f b2 ec 6b 80 e5 3f 5a 47 36 44 bc 64 e5 3f
       0.6719264624598473 0.668546803690542
0004a0 92 46 20 73 93 08 f4 bf a0 80 79 c5 9b 7a f6 3f
       -1.2520937440025688 1.404933711419325
0004b0 23 62 ff 71 72 03 d1 bf 70 29 47 ff 60 ec b8 3f
       -0.2658353913552977 0.09735685570118391
0004c0 02 c4 83 86 97 13 ff 3f 0d c4 d0 16 03 30 e1 3f
       1.94228317780312 0.5371108480086392
0004d0 b0 3f d2 c8 97 55 e1 bf 65 8e 16 ca 25 ae d0 3f
       -0.5416983530321797 0.2606291268841459
0004e0 13 c6 20 ee d8 44 dc bf 3b 97 f2 e0 f3 1d e9 bf
       -0.4417021108120888 -0.7849063294895368
0004f0 e1 eb 79 06 1f 3d f4 bf d3 86 8f a9 da bf f9 3f
       -1.2649221661547403 1.6093393920386247
000500 ae 6e 8a 8d 62 4c 63 bf 7e db 6d a1 5f 1f ce bf
       -0.0023557591305925695 -0.235332444975679
000510 8d 3a 07 d9 ec 0c e0 bf b4 d0 ec 56 da a0 f2 3f
       -0.5015777815659291 1.1642707248220576
000520 d1 86 09 2b ae 7a b8 3f d2 a5 4c 4d bf a6 e6 bf
       0.09562195349419801 -0.707854891753579
000530 0a 57 6c c5 67 98 06 c0 15 de 72 4b b6 fb d0 bf
       -2.824416677826666 -0.26536328666722514
000540 64 d0 8a b4 ba 45 e9 bf 0d 9e 3d b6 14 f1 e1 3f
       -0.7897618795600576 0.5606788215054067
000550 2c 1d 69 fc e9 8e f7 3f 22 74 8e b0 f0 0c dc 3f
       1.4723911151684872 0.43828980676500084
000560 db ad a2 d4 19 98 f2 3f 79 73 13 56 7d 9d eb 3f
       1.1621340089867462 0.8629748040362833
000570 6d 45 c4 76 df dc e6 3f 87 58 3d 2c 03 59 fc bf
       0.7144620246564678 -1.7717315414534214
000580 a9 73 ee f5 94 95 f5 3f db 71 7a b5 2f 57 fe bf
       1.3490190130898816 -1.8962857331272207
000590 40 48 6c 6f 8f 2d fa bf 1a 75 c7 a1 f3 4e d0 3f
       -1.636123118635183 0.2548188285707781
0005a0 03 72 df 2b fe 3c 05 c0 cd 67 87 6c 6d 98 e1 3f
       -2.654781668430816 0.5498568649011247
0005b0 72 e6 29 66 88 50 d5 3f bd 83 26 b3 45 8b f1 3f
       0.3330403325740924 1.0965020177902567
0005c0 3c 81 b6 be 45 d7 ec bf 82 c2 9b 62 55 b2 f5 bf
       -0.9012783741818917 -1.3560384609119471
0005d0 c5 cf 1a 87 f2 99 e5 bf e1 09 90 d1 bc d9 ee 3f
       -0.6750424040569604 0.964079293539097
0005e0 42 af 4f da 90 23 e7 bf 51 b4 e5 3e 4a 08 f3 3f
       -0.7230915321247056 1.189523931210051
0005f0 ea 23 e0 a3 42 25 ae 3f 04 21 35 50 ff fe b7 bf
       0.0588780236285585 -0.09373470028106473
000600 32 5b aa dd 1c ab df 3f fa 89 a4 41 17 e4 e3 bf
       0.4948188938810062 -0.621593120773752
000610 d8 aa e3 24 49 21 cf 3f 8c f7 c8 d4 e3 55 c3 3f
       0.24320329953419306 0.15105865373510274
000620 6f 6c 22 a1 78 7c e7 bf d4 9a 6b 72 e3 a3 f1 3f
       -0.7339442393453178 1.1025118321937741
000630 9e fe af 61 eb 7e a7 bf 44 b3 dc 1a 6a 68 fa bf
       -0.0458901936290179 -1.6504918145466982
000640 86 0e 7d 13 63 ca ef bf 00 e0 86 16 0b d0 db 3f
       -0.9934554463038274 0.43457295608413915
000650 6f 7c bc 74 b4 80 e0 bf 06 06 1f 30 78 e2 f0 bf
       -0.5157110481267305 -1.0552904014333548
000660 70 e2 b3 36 78 cd e5 bf d5 c1 4a 45 62 8e f4 bf
       -0.6813317364131546 -1.2847616869658982
000670 6b 4a 67 0f fd 44 02 40 ae 74 cd 14 54 fa e1 bf
       2.2836857989689654 -0.5618076711940796
000680 1f e2 86 3f 24 12 ef bf ac d4 1c fc 93 5f f7 3f
       -0.9709645500907448 1.4608344886922096
000690 49 eb a2 d9 3e 4f fe bf 9f 5c 51 8f 91 45 ea bf
       -1.8943470479413966 -0.8209922599006808
0006a0 1b 51 ab 8b fb c0 f0 3f fe ea a2 1f e8 cf d8 bf
       1.0471148925617573 -0.3876896199177934
0006b0 11 58 7e fd f8 52 ee 3f 19 43 ab 78 e2 42 ea 3f
       0.9476284934087308 0.8206646305862676
0006c0 a3 b1 30 a5 ea 68 b7 3f 7d 34 33 6e a1 2f e2 3f
       0.09144465001072048 0.5683142807335028
0006d0 a5 39 3c 1e ca 48 f1 bf 55 6e bf 5c 4a ba ed bf
       -1.0802708798470146 -0.9289905368309045
0006e0 b7 94 6e 2d c0 21 f3 3f 09 62 23 14 4b 9c f1 bf
       1.1957399153409776 -1.1006575380944261
0006f0 17 51 25 3d d6 b0 d8 3f c2 a6 5d c6 99 e9 ce 3f
       0.38579326602236236 0.24150392709571206
000700 e5 4c 02 43 89 26 e2 bf 79 7e 11 20 42 e1 cc 3f
       -0.5672041233796362 0.225624337824218
000710 b2 76 69 2d 35 c3 fe 3f 66 46 8c 2d c2 6c 01 40
       1.922658135786531 2.178104739993432
000720 18 d2 87 10 07 0a 00 c0 13 45 d8 a6 f8 66 de 3f
       -2.0048962871026212 0.4750348691314496
000730 75 91 9e 98 73 43 01 c0 d0 d9 b9 10 f2 68 e1 bf
       -2.157935325945966 -0.5440607382468503
000740 ac c5 bf b7 8b fa e8 3f a7 ca 8d 19 85 64 e1 bf
       0.7805842007493786 -0.5435204981898395
000750 5e ac b3 75 26 e2 f0 3f d7 86 15 94 75 f2 e5 3f
       1.0552124593475791 0.6858470814006193
000760 15 84 50 b8 e5 7d ca bf 35 cc 30 e6 12 46 ee bf
       -0.20696708202106665 -0.9460539337072819
000770 b1 b2 43 c0 a0 47 ce 3f 3c 1c 21 00 f3 d2 c4 bf
       0.23656091106331226 -0.1626876593238381
000780 e2 83 d3 ab bb 33 db 3f 83 4e 5d 04 f1 7b ff bf
       0.42503253726868995 -1.967759148644206
000790 38 5b 5d f0 5f 50 53 3f 1a 77 e4 de 8b f8 f0 3f
       0.0011788308051643003 1.0606802660690335
0007a0 c7 82 0f 4a 68 6c dc bf 55 57 ac c5 6c 6e c3 3f
       -0.4441166613815252 0.1518074002457818
0007b0 d9 7c f3 7e c6 9b d2 bf 60 a3 58 e4 cf 97 f5 3f
       -0.29075777432985955 1.3495634956145395
0007c0 03 bc fc 78 8c 10 ec bf 8b 66 90 5c e1 6a eb 3f
       -0.8770201075584513 0.8567969138996018
0007d0 d4 27 fa ae 26 7b c0 3f 14 17 09 99 99 ee f8 bf
       0.12875827354247227 -1.558251951022105
0007e0 67 b2 d6 5b 3b a0 03 40 f0 13 0e eb 1e 4e d6 3f
       2.453238217820672 0.3485181136568931
0007f0 df c7 c0 b8 f1 fa f4 3f 1b d5 18 1e a6 f5 f9 bf
       1.311265680018998 -1.622472875181592

biases f8 [4]
000000 fe 37 d3 ef 3f 0b ef 3f 59 6b 5f 6c 44 11 f4 bf
       0.9701232608874759 -1.2542156441984018
000010 aa a2 3c b8 89 27 df bf ef fc 09 c5 0d ab e8 3f
       -0.48678820602303097 0.7708805893343235
