examples/models/spam_multi/model.npz (npz, 13070 bytes, 2 tensors)

weights f8 [1, 1536]
00000000: 25cf 200d c271 94bf eac3 d9b1 b13b fb3f
00000010: 2110 7e06 66df eebf b334 2cd4 5ae8 01c0
00000020: 0b20 7b9e 5c6a f63f f466 c1eb 4d6c f13f
00000030: dacc a011 191d ffbf b965 dfe8 205b fcbf
00000040: 7ad7 1b48 6973 d13f 9625 10f2 8c52 cc3f
00000050: 3ca5 5cd2 3b4c f2bf 80fe c026 509b fb3f
00000060: fc19 9e30 f6d4 e1bf 15bb 13ff 708b d0bf
00000070: 39fd cff0 f2dc f9bf 01ad 2dce 1376 f63f
00000080: e5e3 350a c0c2 0040 6b65 2b98 c4c2 d73f
00000090: da4f a590 8cf1 c33f e933 4f1b 1ed4 fa3f
000000a0: 2246 5c24 acd1 e3bf 8c1d d5e5 794c 0640
000000b0: 63e3 69c3 8d80 f83f 4dd7 6921 7e79 ebbf
000000c0: 8907 1eed f72e f6bf 2f22 b013 f299 f1bf
000000d0: 3acd 7b12 3ef8 fdbf ec1f 5316 5e67 d43f
000000e0: dd4c 2c79 34f8 f4bf b9cb 2546 1a9d e3bf
000000f0: c5d1 81e1 c2c9 f5bf ae5a 0184 cec2 eebf
00000100: de13 9cb6 8063 bb3f 3057 1c81 7417 01c0
00000110: b286 5a07 b889 0140 a94a c405 830e 0740
00000120: 3e58 28b2 49f0 c7bf 5cfc 9df5 bbb1 e53f
00000130: b822 562a 8a74 f5bf bc1b 151d 4eb5 e7bf
00000140: cf82 68fe 22d4 e43f 3d6d e163 7959 eebf
00000150: a037 5d4e b9f1 f23f 5cef 0e9b bbda fe3f
00000160: d882 b405 3ca5 f1bf 6548 3638 ab58 00c0
00000170: 66ed cc97 46f5 ffbf 1ae1 339d 53be fe3f
00000180: 2a41 2185 4828 e93f 04eb f18a 3bc2 0140
00000190: 1df8 9e04 99d4 d83f 328c 68e6 0795 c5bf
000001a0: 6c56 af56 071d 0540 53ce be9c 394e d43f
000001b0: 42a9 376d 4352 db3f fc04 df16 2faf ee3f
000001c0: 16fd ce14 29a9 66bf 27b1 7a26 2bdd dcbf
000001d0: db6f b791 8bf5 f33f e827 1b63 26b0 e1bf
000001e0: 1f35 902a 810e bdbf 0a86 2100 0c78 e1bf
000001f0: fefc 214e abe7 febf 5c26 e23c 3436 dfbf
00000200: 4b27 8837 b471 e03f 12f0 07d2 a7d2 ed3f
00000210: 0986 a051 5dbd 01c0 f2ee 75bf 0383 ffbf
00000220: 0026 b3af e98c fdbf 9b40 9201 4ad7 c73f
00000230: b61b fd5f b5e1 f83f fae6 c440 1a4e e83f
00000240: 079a 3416 2f7e eebf f937 adb0 316b f6bf
00000250: aff1 d93d 35d2 f13f a62c f061 a9b7 fabf
00000260: c5c6 6fc8 0440 e3bf fe58 cce1 5776 fe3f
00000270: 0b84 4603 c55c d6bf ca74 abda fffd da3f
00000280: f8f2 6441 4b74 f13f 72d3 908c 9ec3 e4bf
00000290: 059c 5a15 4018 e1bf 1b75 4802 5ca7 c53f
000002a0: e524 49f1 2147 d7bf b816 cd62 bd19 f03f
000002b0: dffc 283a e5f7 fabf 3412 20d3 5f43 ea3f
000002c0: 0b67 6f20 7153 e43f de4b 46d9 a55e f1bf
000002d0: 8eee 46a5 9f50 bc3f e5fc 3f88 6555 e9bf
000002e0: f53b 86c7 dabd c3bf 1f66 a37c d480 f2bf
000002f0: 8785 d8d7 a1c0 e1bf 5f48 bf23 798c e6bf
00000300: e34a 1e1c fb04 febf 4cdd 4f87 7843 f33f
00000310: e63e 99c5 0141 f8bf 5b54 7c43 9fdb e33f
00000320: 8fce d9f7 a5df c03f 66d0 b7aa 862b cdbf
00000330: 86c7 5dd8 ea2f 0140 9746 4ef7 95f9 f3bf
00000340: bc65 3ee6 b9fe cb3f 2d7a 0493 aa38 f2bf
00000350: 885e 3456 0e67 7abf 8889 6767 9d79 d9bf
00000360: 2889 da6e b2dd f43f 5198 bee0 1326 f83f
00000370: 1a01 6cb2 397d fa3f 97b2 5f1f 2071 d2bf
00000380: 35e1 1a57 93de f93f e9e1 568a e82b fb3f
00000390: ca28 cc95 7a9f f03f eda8 0041 a1f1 f13f
000003a0: b661 40ae 02d5 f7bf 8993 d2d0 877a 0740
000003b0: 6814 7297 6275 8e3f 4da9 cc96 ba12 febf
000003c0: 3b1f 3369 61b8 02c0 3724 cc06 064b e63f
000003d0: ed3d 20bf 29c6 c33f 90ae 8dee c1f9 9bbf
000003e0: 7f24 7842 d30e afbf 286f 6320 f07b e93f
000003f0: 1444 17e3 38a9 febf a870 d80b 7451 d73f
00000400: 0c8e c7ef 4f13 f1bf fa50 a7f9 0033 0a40
00000410: a021 f31b 8e8b e83f 3555 9f98 88e9 03c0
00000420: bb1b 77b4 702f fb3f 0723 7060 7d8c e03f
00000430: c50f 9fed 752c dcbf 5481 ef0e 096c 0740
00000440: 6468 5096 a6a8 eabf 7c34 850e db9a e6bf
00000450: c2a9 0d08 3e8c e9bf a2f4 aa5a 0a2c fc3f
00000460: d91a fe2f 9eed c5bf 5645 bf7a 182c ec3f
00000470: c0cf e396 5bda f53f c887 4098 54df c7bf
00000480: 0690 4f1b 27bc fb3f dfde c15f 5bd9 cdbf
00000490: c3e1 1471 cdfc a83f 3a3a fd41 1339 f33f
000004a0: c5a9 f713 af7e f63f ce68 c37f 7fcb da3f
000004b0: f89b cc08 8bda e73f 7f55 a661 7849 11c0
000004c0: b27f 88e0 d1b2 0840 ee9f 3834 3a57 e4bf
000004d0: 9d56 0b86 3486 fbbf d1c5 6f49 2eb1 e13f
000004e0: eed4 90c1 f14e b53f ef3a ad3e 2e65 f43f
000004f0: e3af 6a15 6d75 d33f 2866 ef59 d807 38bf
00000500: 073f 5689 6e39 fbbf 2a35 cc2b 5990 ea3f
00000510: 3ec7 1edc f6d8 f6bf dbba 3b5f e59e f2bf
00000520: 61cf 2f14 6c86 fd3f 1e85 bf7d bf9d c83f
00000530: 9c36 c6ef f515 eabf c58b f231 947d f13f
00000540: 148f 472e 9c69 c7bf 9b0b 9636 0104 f43f
00000550: 581f dc6a 6f8c e5bf 6fc0 8962 8939 0840
00000560: a0d8 f286 1f1f ef3f a83d d7c4 1e8a f03f
00000570: 5032 1489 a801 0140 901b f5aa 7037 ddbf
00000580: 9c79 b5d7 05b1 c1bf df0c d74c d4d3 fc3f
00000590: 074e 6df8 d297 f2bf a119 9f77 a477 f23f
000005a0: ca0f 5877 9290 c1bf c923 0421 add8 f23f
000005b0: 38ed cc6f ea7a e73f 9cfd be8d e062 d23f
000005c0: 5575 dded 0b8e f4bf b6be aa7c 2e39 f53f
000005d0: 4bb3 9329 704d 05c0 5579 c1f2 9c30 ec3f
000005e0: 0f6c 262e c1fc e0bf 8267 d6d6 9dca 05c0
000005f0: 42b9 85fe 38e1 fbbf dae8 4857 1ab6 e73f
00000600: 6a89 5304 bd91 e73f 3895 41c3 b12f dbbf
00000610: 4b1e eaac dfcd f33f 9b6c 02ac a37c ed3f
00000620: d1f6 7b5a ed5a e5bf 5451 0aaa 4a74 f33f
00000630: c24c 4fee 9da8 cf3f 34aa 815a 7b84 ee3f
00000640: 3823 aae4 eba5 933f f8ac efd2 c2a0 8f3f
00000650: cad9 1598 6535 0140 a520 c805 ab39 11c0
00000660: c7cc 6bbd 92cf 0040 5fa5 fcb7 026d f43f
00000670: 785d cb12 264a c23f d9d2 77f8 c5ca f73f
00000680: 3c0f 1d76 dc80 ae3f 0529 96ec d2e7 fb3f
00000690: 7444 c9bf e4fe ffbf 25df 4d4a 1dcb edbf
000006a0: 3043 c5b3 c12e d73f 9734 eff5 33aa efbf
000006b0: 5c93 5377 a116 e13f 61d2 3e93 a16c ec3f
000006c0: 3b32 8289 ba73 0440 4fce b296 9be6 0740
000006d0: c6df 6361 1f24 cebf 8d31 c4a9 55af c6bf
000006e0: aae9 e6c4 a7b1 d6bf 4dc8 20f5 4552 fcbf
000006f0: 6012 8377 3c8f 02c0 d9c3 2a90 07ad e4bf
00000700: 4209 0e80 d2ec ef3f 60e2 0b1d 7ec7 a23f
00000710: 124b ad0e 08fc eabf f171 c162 ee1c ee3f
00000720: a17a cabc 8f8e e83f 5373 5cfb fe1c edbf
00000730: 5174 c191 7973 0840 7d61 1aab cead 0340
00000740: 433b df4a 03b6 fe3f eaf3 4c4b 8c01 f7bf
00000750: 918b 21bb 5727 0640 f185 4ce3 ddb2 f4bf
00000760: cd13 80b3 0384 f93f 7825 d993 da68 f8bf
00000770: d9c3 3c07 77d2 ef3f 76fa 74ff 804b f6bf
00000780: d4de 6727 cf88 c1bf b32c c5de c42e d9bf
00000790: 1cc7 9fb9 05cd c6bf edbf b9e6 53d8 ec3f
000007a0: f26b 33fb 5f7c 0440 b45c 071c 2870 eabf
000007b0: 9456 eb34 a5be 0040 0987 e702 511e e8bf
000007c0: 6893 4667 e658 f63f e189 21d1 f5e2 d23f
000007d0: 0d53 8f45 eb94 f83f 9bdc c1fc ba73 fcbf
000007e0: 4c69 7504 458f e43f 9d3a 5f3e d802 f03f
000007f0: beac e12e 2ce2 e0bf d062 aac9 0661 e83f
-0.019965202380446762 1.7020737597742888 -0.9647703291707367 -2.2384544921865994 1.4009672346746835 1.0889414986799553 -1.9446039856527961 -1.7722481819713336
0.27266914407606857 0.22126924342618953 -1.1436117379437993 1.7254182351897782 -0.557246298748225 -0.2585108271586461 -1.6164426237808824 1.4038274816364835
2.0950928495117176 0.3712626920729096 0.1558089929845881 1.6767865244648823 -0.6193447790303177 2.787341876570002 1.531385196051098 -0.8585806515318183
-1.3864669096369389 -1.1000843781531662 -1.873106071664394 0.31880905323168807 -1.3105969174692327 -0.6129275674887743 -1.361758118521821 -0.9612801149586028
0.10698704202884765 -2.1364526831411226 2.1922455381871595 2.88208584313664 -0.18702050398923292 0.6779460713586434 -1.3409520772712948 -0.7408819740311325
0.6508955925856642 -0.9484221411507076 1.1840146123026685 1.928401570984497 -1.1028404448372182 -2.0432953254285615 -1.9973817758280688 1.9214664593437818
0.7861673927491541 2.2198401312901996 0.3879759354712194 -0.16861056089791898 2.6391741535433564 0.31727447802697845 0.42689595857395457 0.958884758634809
-0.002766208874589569 -0.4509990573667601 1.2474475566914325 -0.5527526794114666 -0.11350257195609402 -0.5459041597898147 -1.931559853750343 -0.4876833529056961
0.5138798794371068 0.9319647886436562 -2.217463147841731 -1.9694859961445528 -1.8469025481484778 0.18625760151599455 1.5551046132620576 0.7595340027830553
-0.9529033120823563 -1.4011704350882594 1.1138203064029815 -1.6698392701826292 -0.6015647806909433 1.9038924045794938 -0.3494122058855857 0.4217528949209962
1.0908920816866026 -0.6488793130325645 -0.5342102448529437 0.16916990386463557 -0.3637165886216976 1.006284128133684 -1.685521342456745 0.8207244037190038
0.6351857789515817 -1.0856073844231484 0.11060521874508764 -0.7916743909007918 -0.15423140280151384 -1.1564526432688422 -0.5547646728265797 -0.7046476076304876
-1.8762160395023606 1.2039723668693396 -1.5158708304115236 0.6205593412474956 0.13182520486917723 -0.22789080940094947 2.1483971503848265 -1.2484340343839102
0.21871112577791318 -1.1388345473166155 -0.00644593811309558 -0.3980477819260604 1.304125245115367 1.5092963008005607 1.6555726022343777 -0.28815463126992696
1.616839733365919 1.6982198146707737 1.0389352656807653 1.1214916743434131 -1.4895045096110215 2.934829360414771 0.014872331854585322 -1.8795724764446107
-2.3400295466161913 0.6966581471216448 0.15448495704957513 -0.027319936928889066 -0.060659982551507056 0.7963791496835926 -1.9163140173661803 0.36434651524337847
-1.067214905394283 3.2749042038141143 0.7670355363743973 -2.489030067789509 1.6990820931839454 0.5171496280246125 -0.4402136631508678 2.927751652416342
-0.8330872474500777 -0.7064032825088726 -0.798369422654382 1.7607520620070223 -0.1713140234316686 0.8803827664761836 1.3658100027214317 -0.18650300440009304
1.733435732538966 -0.23319570708894496 0.048803730062391824 1.2014343812658255 1.40592868613986 0.4186705348671581 0.7454276248798797 -4.321748281266422
3.0873143712669497 -0.6356478710122226 -1.7202649341683476 0.5528785166081268 0.08323584533430381 1.2747023056323845 0.3040421208522714 -0.0003666785432280017
-1.701521431419623 0.8301206450866279 -1.4279697988935847 -1.1637929649402199 1.845317915777706 0.19231408729596294 -0.8151807482806421 1.0931589079925612
-0.18291046390287902 1.2509777195234395 -0.6733929717165479 3.0280940721786958 0.9725492130007929 1.0337207497685572 2.1258097371376508 -0.45650879569114355
-0.1382148078218507 1.8017161370815342 -1.1620664314440334 1.1542095825876475 -0.13722449138015086 1.17789948365156 0.7337543662646686 0.28728498308552175
-1.284679345283924 1.326460349064218 -2.662811589069326 0.8809342137645141 -0.5308538342827677 -2.7239338668995865 -1.74248599455639 0.7409793572217283
0.736540325593791 -0.4247860342787422 1.23776214165436 0.9214647635993914 -0.6673495070715153 1.215891517848907 0.2473332799550914 0.9536721008019584
0.019187627631740173 0.015443346082938167 2.151072681586105 -4.3063164618871825 2.101354102947514 1.2766139208782403 0.14288783948607509 1.4870052057059893
0.059576882761148 1.7440976373350747 -1.9997298709534137 -0.9310442401174198 0.3622287993976441 -0.9895267299085785 0.5340125399203361 0.8882606387983963
2.5565081351144534 2.987601449329112 -0.2354773736512909 -0.17722578801511837 -0.3545932219382403 -1.7700862479510022 -2.3199395501017506 -0.6461217704546655
0.9976589680739283 0.036678257985788276 -0.843265560785172 0.9410316399403752 0.7674025237391399 -0.9097895535847819 3.05638421889902 2.459866844885424
1.919436733692877 -1.4378779355458797 2.7692103023159196 -1.2936686400283828 1.5947300922136833 -1.525599076778546 0.994441522727466 -1.3934335688387853
-0.13698758529766641 -0.3934795546999325 -0.17813178600004498 0.9014071947440222 2.5607299447124143 -0.8261910006939588 2.093088544303848 -0.7537007385946889
1.3967041048246873 0.29510255263281066 1.5363571850950308 -1.7782544968920664 0.6424889647562764 1.000694507256106 -0.5276089587836379 0.7618440569668454

biases f8 [1]
00000000: cd23 fef7 40ec 00c0
-2.1153582930023505
